src/Elrond/P3_CurrentAnalysis/LDM/outputs/marble/best_model_20240816-093402.pth (torch, 884277 bytes, 14 tensors)

enc.lins.0.weight f4 [64, 1680]
0	0x3d8f4a84	0.069966346
1	0xbb48f03f	-0.0030660776
2	0xbbaa9804	-0.00520611
3	0x3c6a0260	0.014282793
4	0xbc19353c	-0.009351071
5	0xbc045b75	-0.008078446
6	0xbbc015ea	-0.0058619874
7	0x3beda564	0.007252382
8	0x3bee1ae7	0.0072663906
9	0x3ba6f70c	0.0050953683
10	0xbc3e6d7a	-0.011622781
11	0xbb883099	-0.004156184
12	0x3beb7803	0.0071859374
13	0xbbd91fc6	-0.006626102
14	0x3cad1689	0.02112891
15	0x3cb1261f	0.021624623
16	0x3cb3eee3	0.021964496
17	0x3ca247fb	0.019809714
18	0xbc846287	-0.016160263
19	0x3c825328	0.015908793
20	0x3c05c21f	0.008163958
21	0xbba801f5	-0.0051271864
22	0xbb6fb193	-0.0036574348
23	0x3b9ccc50	0.004785098
24	0xbb047ecd	-0.002021718
25	0xbc96db2c	-0.018415056
26	0x3c6226a9	0.013803163
27	0x3c511d85	0.012763386
28	0x3ca34d3a	0.019934285
29	0xbcaaae09	-0.02083494
30	0xbb723318	-0.0036956724
31	0xbc91ab6c	-0.017781936
32	0xbc5ee974	-0.013605464
33	0xb9a111a9	-0.0003072147
34	0xbc3d8a80	-0.0115686655
35	0xbc5ec7cb	-0.013597439
36	0xbcdb3ff6	-0.026763897
37	0x3c8ae2fb	0.016953936
38	0xbc141def	-0.00904034
39	0x3c6fe844	0.014642779
40	0x3c6c1224	0.014408622
41	0xbc9041f3	-0.017609572
42	0x3c22849a	0.00991931
43	0xbc8d2289	-0.017228382
44	0xbcbf9904	-0.023388393
45	0xba015a7e	-0.0004934444
46	0xbbc1a8c3	-0.0059100105
47	0xbc243830	-0.010023162
48	0x3c9ec5c4	0.019381411
49	0x3bc8d38a	0.006128733
50	0x3c31f563	0.010861727
51	0x3c3643b5	0.011124541
52	0x3c968105	0.018372068
53	0x3b0d6e85	0.0021580767
54	0xba8a3496	-0.0010544236
55	0x3c7b3702	0.015332939
56	0x3a41373a	0.0007370595
57	0x3c9939d8	0.01870434
58	0x3b4381af	0.0029831936
59	0xbc9dd422	-0.019266192
60	0xbbe7e73b	-0.0070771254
61	0xbb8b943c	-0.0042596143
62	0x3c8b20df	0.016983448
63	0x3c880034	0.01660166
64	0x3c8a805c	0.01690691
65	0xbc76016e	-0.015014989
66	0xb99febb0	-0.00030502444
67	0xbb268121	-0.0025406557
68	0x3b8e1ba3	0.0043367906
69	0xbc96663f	-0.018359302
70	0x3cbf6c75	0.023367146
71	0x3c54326f	0.012951477
72	0xbcc11069	-0.023567395
73	0xbc95e106	-0.018295776
74	0x3bbafc44	0.005706342
75	0x3ada84de	0.0016671678
76	0xbc720e51	-0.014773921
77	0xbc8811ca	-0.016610045
78	0x3cbb9ea1	0.022902789
79	0x3c6398b1	0.013891385
80	0xba98e63d	-0.0011665296
81	0x3bdb777c	0.0066975933
82	0xbc2151a4	-0.009846125
83	0x3cb80637	0.022463901
84	0x3c7d06ff	0.0154435625
85	0xbb3bf45e	-0.002867959
86	0xbcba3420	-0.022729933
87	0x3cc776ee	0.024348702
88	0xbc570ff7	-0.013126365
89	0x3ba75bf3	0.0051073967
90	0xbbf39e6b	-0.0074346564
91	0x3ab3cb1e	0.001371715
92	0x3a208ef1	0.00061248156
93	0xbb4d1126	-0.003129074
94	0xbc963c2e	-0.018339243
95	0xbbb1eed9	-0.005430084
96	0xba84e793	-0.0010139815
97	0xbc12d089	-0.0089608515
98	0x3b94d8b6	0.0045424355
99	0xbc49052b	-0.012269299
100	0xbb9b357e	-0.0047366014
101	0xbb86b4d9	-0.004110914
102	0x3ca48f36	0.02008782
103	0x3c8351fc	0.016030304
104	0xbcac599b	-0.021038821
105	0xbb9a2ace	-0.0047048097
106	0xbc056a1c	-0.008142974
107	0xbc673743	-0.0141122965
108	0xbcb5d5a9	-0.022196608
109	0x3c1914fe	0.009343384
110	0x3c46dc0a	0.012137422
111	0x3c9b92f1	0.018990966
112	0x3aff9753	0.0019500054
113	0x3bb6fff7	0.0055847126
114	0x3c5d37c5	0.013502066
115	0x3bac8bea	0.0052657025
116	0xbc1fce2d	-0.009753746
117	0x3ca53fbb	0.02017199
118	0x3c164839	0.009172493
119	0xbc84a942	-0.01619399
120	0xbc7372a6	-0.014858877
121	0xbca63af4	-0.020291783
122	0x3c21980a	0.009862909
123	0x3b682e9c	0.0035428172
124	0xbb99e11b	-0.004696024
125	0xbbf8f91b	-0.007598055
126	0xbcad8ce6	-0.02118535
127	0x3cb4de7a	0.022078741
128	0x3b51b8a9	0.0032000935
129	0xbccc6803	-0.02495194
130	0xbc95c3f2	-0.01828191
131	0xbc7195ee	-0.014745219
132	0xbc88ad72	-0.016684268
133	0xbc3816e8	-0.01123593
134	0xbc4b2fef	-0.012401565
135	0x3b8c01c7	0.004272673
136	0xbc54be10	-0.012984768
137	0x3cd7afbb	0.026328912
138	0xbcb8723d	-0.02251541
139	0xbc12c5c0	-0.00895828
140	0xbbd3d8dd	-0.006465061
141	0x3ad47e7f	0.0016212015
142	0x3cb09e55	0.021559874
143	0x3bc5b3eb	0.006033411
144	0xbc943c19	-0.018095063
145	0x3a88caa2	0.0010436366
146	0x3bf3c5e1	0.0074393605
147	0xbc3fd84b	-0.011709283
148	0x3c2f22b2	0.010689424
149	0xbc12e6d3	-0.008966166
150	0x3c206f32	0.009792136
151	0xbc1b5a8a	-0.009482035
152	0x3c279446	0.010228222
153	0xbc692b96	-0.014231583
154	0x3bad7aac	0.0052941646
155	0x3c211691	0.00983204
156	0xbb860afc	-0.004090665
157	0xbc074071	-0.00825511
158	0xbbe68567	-0.007034946
159	0x3b4141f5	0.0029488776
160	0x3c9bdfa9	0.019027548
161	0xbb89836f	-0.0041965763
162	0xbc9e6bf5	-0.019338587
163	0x3cb37d00	0.02191019
164	0xbc81664e	-0.015795853
165	0x3c75ada9	0.014995017
166	0x3bee52d8	0.0072730593
167	0x3c25d329	0.010121145
168	0xbc549215	-0.012974282
169	0x3c9b3ca1	0.018949809
170	0xbcc052e8	-0.023477033
171	0x3bbd9756	0.005785863
172	0xbb603438	-0.0034210812
173	0x3c440f79	0.01196658
174	0x3c4a9932	0.012365626
175	0x3b1b7080	0.0023718178
176	0xbc1f885a	-0.009737099
177	0xbabeaebb	-0.0014547923
178	0x3c464605	0.012101655
179	0xbcc082ec	-0.023499928
180	0xbad8d927	-0.0016544209
181	0x3ccbf34b	0.024896285
182	0x3c3c9d39	0.011512094
183	0x3cb704ba	0.022341121
184	0x3c7505da	0.014955008
185	0x3ca1ac85	0.019735584
186	0x3c1de2b4	0.00963657
187	0x3c6cd123	0.014454159
188	0xbacc0d01	-0.001556784
189	0xbbb22e14	-0.005437622
190	0x3c8a4e01	0.016882898
191	0x3caf946e	0.021433081
192	0xbca2413c	-0.019806497
193	0x3c673189	0.014110931
194	0x3c928456	0.017885368
195	0xbcbe6024	-0.023239203
196	0xbbc960e8	-0.0061455853
197	0xbb16bbc2	-0.0023000096
198	0x3c87c78b	0.016574642
199	0xbc3d9f47	-0.011573619
200	0x3b1ae552	0.002363522
201	0xbc2d2058	-0.010566793
202	0xbc173ae6	-0.009230351
203	0xbc4857bb	-0.012227948
204	0xbc9576a4	-0.018245049
205	0xbca0ba55	-0.0196201
206	0xbb99bf00	-0.0046919584
207	0x3c97207f	0.018448113
208	0xbc501d9c	-0.012702372
209	0xbc3d8203	-0.011566642
210	0x3c2133fb	0.009839053
211	0x3c395c4f	0.011313512
212	0xbc4d635f	-0.012535899
213	0x3caf0d02	0.021368507
214	0xbcb5d913	-0.022198236
215	0x3a024e0a	0.0004970735
216	0xbc2f17e0	-0.010686845
217	0x3caa94c9	0.0208229
218	0x3b363680	0.002780348
219	0x3b9ca5a4	0.004780488
220	0x3c1255b7	0.008931569
221	0xbc165b74	-0.009177078
222	0x3cca3f0f	0.024688272
223	0xbbb0ae22	-0.005391852
224	0xbbdfabfb	-0.0068259216
225	0x39dd15e0	0.00042168703
226	0x3cbce710	0.023059398
227	0x3c7fe509	0.015618571
228	0xbc967a52	-0.018368874
229	0xbc2566c0	-0.010095298
230	0x3c27fce8	0.010253169
231	0x3c740f4b	0.014896224
232	0xbc23fc99	-0.010008954
233	0xbcc5f8b3	-0.02416644
234	0x3b988e32	0.004655623
235	0xbc865437	-0.016397579
236	0xbc836544	-0.016039498
237	0xbc8a8a3c	-0.016911618
238	0x3c460ead	0.01208846
239	0x3c366b49	0.011133977
240	0xbcb023d6	-0.021501463
241	0xbc80169b	-0.01563578
242	0x3cab5305	0.02091361
243	0x3cbdcf6e	0.0231702
244	0xbcbfff7d	-0.023437256
245	0xbb480b4e	-0.0030524316
246	0xbcba4bee	-0.022741284
247	0x3b277aee	0.002555545
248	0xbaad9d4d	-0.0013245732
249	0x3ca8520d	0.020546937
250	0x3bc6d93d	0.0060683773
251	0x3c6ecc79	0.014575117
252	0x3cc9ed03	0.024649149
253	0x3cb20f83	0.021735912
254	0x3c8ca46f	0.017168252
255	0xbafec152	-0.0019436276

enc.lins.0.bias f4 [64]
0	0x3c3fd00f	0.01170732
1	0xbc3255e0	-0.010884732
2	0x3c7dd8bc	0.015493568
3	0xbc9504e6	-0.018190812
4	0x3ca80e3d	0.020514602
5	0xbc399ce1	-0.011328907
6	0x3ca97925	0.020687649
7	0xbb0c3dcd	-0.002139914
8	0x3b5853b2	0.003300887
9	0x3cbe38ab	0.02322038
10	0xbbb6f727	-0.005583662
11	0x3c8e9251	0.017403753
12	0xbcae836b	-0.0213029
13	0xbc8fe8ec	-0.01756712
14	0x3c17ffa6	0.00927726
15	0x3c15f40b	0.009152423
16	0x3b9155a7	0.0044352594
17	0xbc81b70e	-0.015834358
18	0x3b8ecc50	0.004357852
19	0x3c74eae5	0.014948581
20	0x3c7377e2	0.014860125
21	0x3c93e6d5	0.018054405
22	0x3c71cebf	0.014758765
23	0xbc832932	-0.016010854
24	0x3c5eb892	0.01359381
25	0xbc138d01	-0.009005786
26	0xbbba7eef	-0.005691401
27	0x395a8f13	0.000208434
28	0x3ca563f6	0.020189267
29	0x3ca2c83f	0.019870875
30	0x3c8b8273	0.017029976
31	0xbc6de6a7	-0.014520324
32	0x3bbd70f7	0.0057812887
33	0x3a83a189	0.0010042648
34	0x3c834f54	0.016029038
35	0x3c943988	0.01809384
36	0x3b67b541	0.0035355838
37	0xbc891b98	-0.01673679
38	0x3b9ad073	0.004724556
39	0x3ca82d7c	0.020529501
40	0xbc79a5e7	-0.015237308
41	0x3b336d78	0.002737848
42	0x3c2f97d3	0.01071735
43	0x3bb8d5f4	0.0056407396
44	0x3beafe37	0.007171418
45	0x3caa04ac	0.02075418
46	0xbb875a49	-0.004130636
47	0xbc070c7b	-0.008242722
48	0xbbc0cf51	-0.005884089
49	0xbc91bfb1	-0.0177916
50	0x3c9c63f1	0.019090625
51	0x3c917d66	0.01775999
52	0xbc85f354	-0.01635138
53	0xbcb7b005	-0.0224228
54	0x3a8cb091	0.0010733773
55	0xbc4875c4	-0.012235109
56	0xbc9c2cb1	-0.01906428
57	0x3c508974	0.012728084
58	0x3c87d8b3	0.016582822
59	0xbc459fb9	-0.012062007
60	0xbc5ecb9d	-0.01359835
61	0x3c887bb3	0.016660547
62	0xbc8533e8	-0.016260102
63	0x3ca0102d	0.019538963

enc.lins.1.weight f4 [32, 64]
0	0xbda0a8ab	-0.07844671
1	0xbdceaba3	-0.10091331
2	0x3c924983	0.017857319
3	0xbdf3ee23	-0.11910655
4	0xbe04b343	-0.12959008
5	0x3d8ce27a	0.068791345
6	0xbcdc9e46	-0.02693094
7	0x3dcdd8f4	0.10051146
8	0xbd453bbe	-0.048152678
9	0xbb2f870f	-0.0026783382
10	0xbd7b73f4	-0.06138988
11	0x3dcc0efa	0.09963794
12	0x3dd1aa83	0.10237601
13	0x3ddc06a8	0.10743457
14	0xbdb1d515	-0.0868322
15	0xbd3b6ec3	-0.045759927
16	0x3dc7c350	0.0975405
17	0xbde8d85e	-0.11369394
18	0xbd3e1533	-0.046406936
19	0x3da2ffb3	0.07958927
20	0x3dbda4b4	0.0925993
21	0xbd52efd0	-0.051498234
22	0xbdd4751c	-0.10373899
23	0xbd0ae2d5	-0.03390773
24	0x3d3ce7ef	0.046119627
25	0xbdede7bc	-0.116164654
26	0xbc4742d9	-0.012161934
27	0x3dadf1ce	0.08493386
28	0xbd8420ce	-0.064515695
29	0xbd863304	-0.06552699
30	0x3dcae7d2	0.099074975
31	0x3da03a7f	0.07823657
32	0x3d8232cd	0.06357346
33	0x3b0b2f98	0.0021238085
34	0x3dc9ff50	0.0986315
35	0xbda7fa02	-0.08201982
36	0x3de3a63a	0.111156896
37	0x3dafc654	0.0858275
38	0x3d9f1770	0.07768142
39	0x3d32155b	0.043477397
40	0xb81d4eeb	-3.7505215e-05
41	0x3c1a1b02	0.009405853
42	0xbd8ff319	-0.07028789
43	0x3d88584a	0.06657465
44	0xbd06fde7	-0.032956984
45	0xbd275a12	-0.040857382
46	0xbc11b44d	-0.008893085
47	0x3d37a711	0.04483706
48	0xbd8d1670	-0.06889045
49	0x3d94c2f7	0.07263749
50	0xbdf6994e	-0.12040959
51	0xbd0502df	-0.03247344
52	0x3da763c7	0.08173328
53	0xbda83d81	-0.08214856
54	0xbd28d840	-0.041221857
55	0x3dd499a5	0.10380868
56	0x3d7b8591	0.061406676
57	0xbdffef51	-0.12496818
58	0xbbd521df	-0.006504282
59	0x3cc715ad	0.024302328
60	0xbca9961e	-0.020701464
61	0x3c5fafbb	0.013652737
62	0xbd7ea2d5	-0.062167007
63	0xbdfd7b32	-0.12377013
64	0x3cd58043	0.026062137
65	0xbd61153a	-0.054951884
66	0xbd0ca53c	-0.034337267
67	0x3ce58ed7	0.028022213
68	0xbdb5b9da	-0.08873339
69	0xbd65cffc	-0.056106552
70	0xbc491a36	-0.012274316
71	0xbc2ec5fe	-0.010667322
72	0x3d3a5637	0.045492377
73	0xbdd9e7da	-0.10639925
74	0xbdade335	-0.08490602
75	0x3ddc312d	0.10751567
76	0xbd94e165	-0.07269553
77	0xbdde06a7	-0.108411126
78	0x3dc68da3	0.09694984
79	0xbd929bf4	-0.07158652
80	0x3d035ef6	0.032072984
81	0x3dc999b1	0.098437674
82	0x3d51df06	0.051238082
83	0xbd51546a	-0.051105894
84	0x3dcca547	0.09992462
85	0xbdb68d2d	-0.08913646
86	0xb98ce0e4	-0.00026870437
87	0xbdd84095	-0.10559193
88	0x3bbd1033	0.0057697534
89	0x3d550db5	0.052015025
90	0x3df24e84	0.11831382
91	0x3d9a86e5	0.0754526
92	0xbde4ed65	-0.11178092
93	0x3db32fdd	0.087493636
94	0x3d978fc1	0.07400466
95	0x3d886c20	0.06661248
96	0xbddaa6f2	-0.106763735
97	0xbb872cc9	-0.004125212
98	0x3d05e5bb	0.03268979
99	0x3df0e52f	0.11762463
100	0x3cefca9f	0.029271422
101	0x3ac44e81	0.0014977009
102	0x3ce6093a	0.028080571
103	0x3d9ab725	0.07554463
104	0xbd4907bf	-0.049079653
105	0xbdd6986f	-0.10478293
106	0xbdeacfb2	-0.11465396
107	0xbd93b787	-0.072127394
108	0xbdbecedc	-0.09316799
109	0x3e048f34	0.12945253
110	0xbd8c812e	-0.068605766
111	0xbd4338c8	-0.047661573
112	0xbc856a0b	-0.016285917
113	0xbc5e2dae	-0.013560696
114	0x3d071be9	0.0329856
115	0xbb3d1259	-0.0028850047
116	0x3dfcf633	0.12351646
117	0xbdd78c45	-0.10524801
118	0x3d963dda	0.07336016
119	0x3d8b6db2	0.06808032
120	0x3d87429d	0.06604502
121	0xbca426cd	-0.020038033
122	0x3dc7a0c1	0.09747458
123	0x3defddc1	0.11712218
124	0xbcd91c6f	-0.026502816
125	0x3b112e1b	0.0022152725
126	0xbc79035c	-0.015198555
127	0xbb0b4d35	-0.0021255736
128	0xbdf92a32	-0.12166251
129	0xbd4275f1	-0.04747576
130	0x3dbeebe1	0.09322334
131	0xbdff77ac	-0.124739975
132	0xbd0dc9c9	-0.034616265
133	0xbdc997a0	-0.09843373
134	0x3d454584	0.048162
135	0x3ddb411b	0.10705777
136	0xbdb37553	-0.08762612
137	0x3de2b6eb	0.11070045
138	0x3db971e8	0.09054929
139	0xbc613f98	-0.013748072
140	0x3d4184f5	0.04724594
141	0x3cc614df	0.024179874
142	0xbca1c5b5	-0.019747594
143	0xbdfe8f89	-0.12429721
144	0xbace9275	-0.00157602
145	0x3db127e9	0.086501904
146	0x3cf2194a	0.029553074
147	0x3d09b220	0.03361714
148	0xbda5df17	-0.08099192
149	0xba754b2d	-0.00093572104
150	0x3d60c0a6	0.054871224
151	0x3d0193f9	0.03163526
152	0xbdd14e48	-0.10220009
153	0xbdc3f884	-0.09568885
154	0x3dd3025e	0.10303186
155	0xbccff8c7	-0.025387181
156	0x3bfd89ec	0.007737389
157	0x3d9e219c	0.07721254
158	0xbc4adf8c	-0.012382399
159	0xbe0710c0	-0.13189983
160	0x3bf2c858	0.0074091367
161	0x3df28d62	0.11843373
162	0xbdbdea35	-0.09273187
163	0xbc97c084	-0.018524416
164	0xbe087af5	-0.13328154
165	0xbd976217	-0.07391756
166	0x3c8864af	0.016649572
167	0xba915a4b	-0.0011089531
168	0xbdf7cd2e	-0.12099682
169	0xbda62e7e	-0.081143364
170	0x3d595641	0.053060774
171	0xbc40c726	-0.011766231
172	0xbe082c83	-0.1329823
173	0xbd1bf92b	-0.038079422
174	0x3dadd512	0.084879056
175	0x3da9839e	0.08277057
176	0x3d34dbac	0.044154808
177	0x3d8dde8b	0.06927212
178	0x3de9de0a	0.11419304
179	0x3d9b0807	0.075698905
180	0x3d010bb5	0.031505305
181	0x3dda1702	0.1064892
182	0x3d02d59f	0.031942006
183	0x3d4ec04d	0.05047636
184	0xbdf35616	-0.11881654
185	0x3d86442a	0.0655597
186	0x3d85ab4c	0.06526813
187	0x3d6c476a	0.057685293
188	0xbd71480e	-0.058906607
189	0xbd8dedf5	-0.06930152
190	0x3ddd8047	0.108154826
191	0xbbf26962	-0.0073978165
192	0x3dbc7515	0.09202019
193	0xbd554357	-0.052066173
194	0x3c736ff0	0.014858231
195	0x3acacabe	0.0015471799
196	0x3dcfc02a	0.10144074
197	0x3c512fba	0.012767727
198	0xbb2497ae	-0.0025114822
199	0x3cecc1b4	0.028900959
200	0xbdea1367	-0.11429482
201	0xbd699d4a	-0.05703477
202	0xbdeca1fb	-0.11554333
203	0xbdc49bc4	-0.096000224
204	0x3cd61bb7	0.026136262
205	0xbda5fecc	-0.08105239
206	0x3cfdc53d	0.03097784
207	0xbdc0a450	-0.0940634
208	0xbd80eed2	-0.06295551
209	0x3dc35df6	0.09539406
210	0xbd8cd159	-0.068758674
211	0x3c109b79	0.00882613
212	0xbd3e38d8	-0.04644093
213	0xbdbf0b85	-0.09328369
214	0x3dcb1dab	0.09917768
215	0xbc962cdd	-0.01833194
216	0x3c3088e5	0.010774826
217	0x3d45946d	0.048237253
218	0x3defc060	0.117066145
219	0xbdd585a7	-0.10425883
220	0x3de222ab	0.11041769
221	0xbd82753d	-0.06370018
222	0x3dcaf062	0.09909131
223	0x3c19b1f9	0.009380811
224	0xbd386513	-0.045018267
225	0xbda3e0aa	-0.08001836
226	0x3dadf04d	0.08493099
227	0xbdd2ab39	-0.102865644
228	0x3ded9fb0	0.116027236
229	0xbc7007db	-0.01465031
230	0x3d8fe783	0.07026579
231	0xbd4d6562	-0.050145514
232	0xbcb585f9	-0.02215861
233	0xbda452e1	-0.080236204
234	0xbc2dc3e3	-0.010605785
235	0x3d8123fe	0.06305693
236	0x3d4baef3	0.04972739
237	0xbce77bfb	-0.02825736
238	0x3d844286	0.06458001
239	0xbadce5b2	-0.0016853123
240	0xbdbf20d8	-0.09332436
241	0xbd7167ef	-0.05893701
242	0xbcba18b5	-0.02271686
243	0xbce39e42	-0.027785424
244	0x3dc821ab	0.09772047
245	0x3d1079da	0.035272457
246	0x3c8b1f5c	0.016982727
247	0xbcedc6cd	-0.02902546
248	0x3debd47a	0.11515136
249	0xbbf2d8f5	-0.007411117
250	0x3d8748f5	0.06605712
251	0xbcefce6f	-0.02927324
252	0x3d2261bd	0.03964399
253	0x3da6bf26	0.081419274
254	0xbd85fdb2	-0.06542529
255	0x3d1faeef	0.03898519

enc.lins.1.bias f4 [32]
0	0x3d77dd6f	0.06051391
1	0xbdc02e6b	-0.093838535
2	0xbca0c61d	-0.019625718
3	0x3cec23d1	0.028825672
4	0xbcaa68f8	-0.020802006
5	0xbd6502d1	-0.05591089
6	0x3d79587a	0.060875393
7	0xbdb48c1b	-0.088157855
8	0x3e05df91	0.13073565
9	0x3d2eb5a6	0.042653702
10	0xbc8937be	-0.016750213
11	0xbc1ed427	-0.009694136
12	0xbc72859f	-0.014802366
13	0x3ddf7e0c	0.109127134
14	0xbe0def3b	-0.1386079
15	0x3dade9ea	0.08491881
16	0xbd335351	-0.04378063
17	0x3d99a231	0.07501639
18	0x3d62f1fa	0.055406548
19	0x3dc94f21	0.09829546
20	0x3cc4cb99	0.024022864
21	0x3cd0833a	0.025453199
22	0xbd9a0a5b	-0.075215064
23	0xbbb100ee	-0.005401722
24	0xbba0b40b	-0.0049042753
25	0x3ca23993	0.019802844
26	0x3d8a937f	0.06766414
27	0xbda85802	-0.08219911
28	0x3d10df5b	0.03536926
29	0x3d50dcce	0.050991826
30	0x3d7858cb	0.060631555
31	0xbe2264b8	-0.15858734

enc.norms.0.module.weight f4 [64]
0	0x3f7fa93e	0.9986762
1	0x3f800f5d	1.0004689
2	0x3f7f0ff2	0.99633706
3	0x3f80149d	1.0006291
4	0x3f7f4c1b	0.997255
5	0x3f801a97	1.0008115
6	0x3f7fcc7b	0.9992139
7	0x3f80507a	1.002456
8	0x3f805587	1.0026101
9	0x3f7e7cb3	0.99409026
10	0x3f7eeced	0.9958027
11	0x3f80d23b	1.0064157
12	0x3f7df012	0.99194443
13	0x3f7e7d5f	0.9941005
14	0x3f818779	1.0119468
15	0x3f80266e	1.0011728
16	0x3f8061fd	1.0029904
17	0x3f80bc8b	1.0057539
18	0x3f801ccf	1.0008792
19	0x3f801d9c	1.0009036
20	0x3f7fafa7	0.998774
21	0x3f8099d5	1.0046946
22	0x3f802b5e	1.0013235
23	0x3f7ef8aa	0.9959818
24	0x3f7f096e	0.99623764
25	0x3f8038b1	1.0017301
26	0x3f8005f6	1.0001819
27	0x3f7f60ae	0.99756896
28	0x3f8002e8	1.0000887
29	0x3f80dd26	1.0067489
30	0x3f8082fe	1.0039976
31	0x3f803059	1.0014755
32	0x3f7ec8c8	0.9952512
33	0x3f7f7969	0.9979463
34	0x3f7f5c76	0.9975046
35	0x3f80716d	1.0034615
36	0x3f802040	1.0009842
37	0x3f8048ad	1.0022179
38	0x3f8120b9	1.0088111
39	0x3f7efba1	0.99602705
40	0x3f80527b	1.0025171
41	0x3f7f2882	0.99671185
42	0x3f7f8f0c	0.9982765
43	0x3f7ecb47	0.99528927
44	0x3f7fdd76	0.999473
45	0x3f7f7ce4	0.9979994
46	0x3f7f7b4d	0.9979752
47	0x3f7fb763	0.998892
48	0x3f813250	1.0093479
49	0x3f7ffc16	0.9999403
50	0x3f7e524c	0.99344325
51	0x3f7ffc3c	0.99994254
52	0x3f7ff932	0.99989617
53	0x3f80789e	1.003681
54	0x3f7f4fc7	0.99731106
55	0x3f7eeceb	0.9958026
56	0x3f801e29	1.0009204
57	0x3f80a90f	1.0051593
58	0x3f7fafb6	0.9987749
59	0x3f8067bd	1.0031658
60	0x3f7e3f3a	0.99315226
61	0x3f806df8	1.003356
62	0x3f8006a6	1.0002029
63	0x3f7fca19	0.9991775

enc.norms.0.module.bias f4 [64]
0	0xbb99693e	-0.0046817353
1	0x3ba45e87	0.0050161513
2	0xbb44b9c3	-0.003001795
3	0xba9ba7df	-0.0011875591
4	0xba915195	-0.0011086935
5	0xb9ab94da	-0.00032726565
6	0xbb9e38f1	-0.0048285653
7	0x3b14c965	0.0022703048
8	0x3b9d1185	0.0047933483
9	0xbc5d9c9f	-0.013526111
10	0xbb6edfd1	-0.0036449323
11	0x3a5b691b	0.0008369849
12	0xbc05e1d0	-0.008171514
13	0xbbda3551	-0.006659188
14	0x3bbbdbad	0.0057329745
15	0x3b0661ee	0.0020505148
16	0x3aa4783c	0.001254804
17	0x3ba66f1c	0.0050791632
18	0x3b04edd4	0.0020283358
19	0x3c017feb	0.007904033
20	0x3c07fafb	0.0082995845
21	0x3c0f2825	0.008737599
22	0xbadeb35d	-0.001699071
23	0xbbb5f003	-0.0055522933
24	0xbb15be01	-0.0022848847
25	0x3b93bd40	0.0045086443
26	0xbb026712	-0.001989786
27	0x3a1c35eb	0.0005958962
28	0xbb22243d	-0.0024740838
29	0xbb75937b	-0.0037471938
30	0x3b9d25ce	0.0047957664
31	0x3baace99	0.0052126166
32	0xbc02a4a0	-0.00797382
33	0xbb102776	-0.0021996177
34	0xbbe4700a	-0.006971364
35	0xba8039d2	-0.0009782857
36	0x397b74f3	0.00023980792
37	0xbc3339b1	-0.010939048
38	0x3ccec5b3	0.025240755
39	0xbb8f7ee6	-0.004379141
40	0xbb366433	-0.002783072
41	0xba1de152	-0.000602265
42	0x3ada40e0	0.0016651414
43	0xbbd9123e	-0.006624489
44	0x3b3e2f2c	0.0029019816
45	0xbb4d94b2	-0.0031369147
46	0x3a2bbe90	0.00065515283
47	0x3a49d8ac	0.0007699828
48	0x3c8d9ea2	0.017287556
49	0x3c329227	0.010899103
50	0xbc18b40c	-0.00932027
51	0xbba865d8	-0.005139094
52	0xbaaff68f	-0.0013424921
53	0x3c0ca9e9	0.008585432
54	0xb8e47be6	-0.00010894965
55	0xbb7882c6	-0.0037919744
56	0xbb78a76c	-0.0037941588
57	0xbb66385a	-0.0035128803
58	0xbb2443ab	-0.0025064747
59	0x3c0840d8	0.008316241
60	0xbc4821ba	-0.012215072
61	0x3c01f907	0.007932908
62	0xbb1ba7c6	-0.0023751124
63	0xbba8aa9f	-0.0051472927

enc.norms.0.module.running_mean f4 [64]
0	0xbd51313a	-0.051072337
1	0xbde8350b	-0.11338242
2	0x3f014e50	0.5051012
3	0xbe029650	-0.12752652
4	0x3dfc7201	0.12326432
5	0x3e1293e9	0.14314236
6	0x3d3e06ee	0.046393327
7	0xbe6bd355	-0.23029836
8	0x3f18aaef	0.59635824
9	0xbdc936d9	-0.098249145
10	0xbf1b3891	-0.6063319
11	0xbeb226fe	-0.34795374
12	0x3e188b37	0.14896856
13	0x3e31edc6	0.1737586
14	0xbf00785f	-0.5018367
15	0x3eea9e8e	0.45824093
16	0xbd3bd4fc	-0.045857415
17	0x3dd21250	0.10257399
18	0xbe6f5a4a	-0.23374286
19	0x3e7a0557	0.244161
20	0x3eb0311c	0.34412467
21	0x3e03ac77	0.12858759
22	0xbd12d238	-0.03584501
23	0x3e9dc763	0.30816182
24	0x3ed3dca6	0.4137928
25	0x3ed4a400	0.41531372
26	0xbd2a69fb	-0.041604977
27	0xbe0ab6f2	-0.1354635
28	0x3d6b6c5c	0.057476386
29	0xbeeab6e8	-0.4584267
30	0x3ea7fce8	0.3281014
31	0x3ea5715f	0.32313058
32	0xbed039dd	-0.40669146
33	0x3e299963	0.16562419
34	0xbe66e0cd	-0.22546692
35	0xbea48e3e	-0.32139772
36	0x3e4cd047	0.20001327
37	0xbe88304d	-0.2659935
38	0x3f38cb46	0.7218517
39	0x3c8d7708	0.017268673
40	0x3e940dbd	0.2891673
41	0x3d93ff09	0.072263785
42	0x3e0b8163	0.13623576
43	0x3effffa6	0.49999732
44	0x3e409785	0.188078
45	0xbea0f391	-0.31435826
46	0xbe96ea54	-0.29475653
47	0xbeccd096	-0.40002888
48	0x3e200bfc	0.15629572
49	0xbcddbb1a	-0.027066756
50	0xbedbaf73	-0.42907295
51	0x3e85a924	0.26105607
52	0xbef7ec91	-0.48422673
53	0x3ede1e61	0.43382552
54	0x3eaffcd6	0.34372586
55	0x3c1de355	0.00963672
56	0xbed530ef	-0.41638896
57	0xbe4502ce	-0.19239351
58	0xbdd7f0c5	-0.1054397
59	0x3b0d7d77	0.0021589675
60	0xbf04ff70	-0.51952267
61	0xbe34c16c	-0.1765191
62	0xbea0c354	-0.31399024
63	0x3e0554ec	0.13020676

enc.norms.0.module.running_var f4 [64]
0	0x42d0b0d0	104.34534
1	0x42a9b669	84.85627
2	0x42b5037c	90.506805
3	0x42ef4cec	119.65024
4	0x4265d720	57.460083
5	0x4236177e	45.52294
6	0x42d86301	108.19337
7	0x42eb97e5	117.79667
8	0x41368c34	11.409229
9	0x42081d6f	34.028744
10	0x42715972	60.33735
11	0x4238f3d1	46.238102
12	0x429f2b36	79.5844
13	0x4315ac11	149.67213
14	0x42eaaab7	117.33343
15	0x41bc8de1	23.569277
16	0x42334bc2	44.823982
17	0x41c78657	24.940596
18	0x41c4ddfd	24.608393
19	0x42bd02b3	94.50527
20	0x43402808	192.15637
21	0x42fc3e51	126.12171
22	0x42bd08e8	94.517395
23	0x4295fb44	74.99075
24	0x42af0852	87.51625
25	0x42275b8d	41.839405
26	0x422897e0	42.148315
27	0x42e70dee	115.52721
28	0x42b08a9d	88.27073
29	0x4263e2a4	56.97133
30	0x425b3838	54.8049
31	0x42672ff5	57.796833
32	0x42edf876	118.985275
33	0x42043136	33.048058
34	0x414fa7a2	12.978426
35	0x42299748	42.397736
36	0x42cf39c1	103.6128
37	0x41ebdb00	29.481934
38	0x42bc56b0	94.16931
39	0x42b1c340	88.88135
40	0x42ef4dfc	119.65231
41	0x430d520a	141.32047
42	0x42e8e3b0	116.4447
43	0x429248a7	73.1419
44	0x42f16342	120.69386
45	0x426bd77d	58.960438
46	0x425933ea	54.300697
47	0x42299612	42.396553
48	0x423402b2	45.002632
49	0x41f5864a	30.69057
50	0x42b714aa	91.54036
51	0x4336f298	182.94763
52	0x42b674b4	91.227936
53	0x42950d65	74.52616
54	0x42dfc674	111.8876
55	0x42b27f83	89.24905
56	0x42f37ced	121.743996
57	0x432e614d	174.38008
58	0x429219d7	73.05047
59	0x420758f5	33.836872
60	0x433e078c	190.02948
61	0x41e6918a	28.821064
62	0x42c44a68	98.145325
63	0x42c73bfb	99.61715

momentum_buffer f4 [64, 1680]
0	0xbbb76906	-0.0055972366
1	0x3a2eb94f	0.00066651864
2	0x3c308e77	0.010776154
3	0xb8f0d700	-0.00011484139
4	0x3c74a8be	0.014932809
5	0xbab087af	-0.0013468171
6	0xbb47c4af	-0.0030482223
7	0xbbfc5b02	-0.0077012787
8	0x3b1c8752	0.0023884368
9	0xb9b53534	-0.0003456265
10	0xbb708a55	-0.0036703546
11	0xbb9baf30	-0.0047511086
12	0x3a412c7b	0.0007368994
13	0xba7e2a78	-0.00096956594
14	0xbb577c05	-0.0032880318
15	0xbbd3912b	-0.0064565144
16	0xba7487ac	-0.0009328078
17	0xbaeb1e9c	-0.00179382
18	0x3b9d8532	0.004807138
19	0xbb723d4b	-0.0036962803
20	0xbbabff0e	-0.0052489107
21	0xbb1dee00	-0.0024098158
22	0xbb0ffe34	-0.0021971585
23	0x3b2d845e	0.0026476602
24	0x3b13444a	0.0022471123
25	0x3b9055fa	0.0044047805
26	0xbb929d7e	-0.004474341
27	0x3a8ae2a1	0.0010596105
28	0xbb902a2a	-0.0043995576
29	0x3b1a0ead	0.0023507283
30	0xbb32fff2	-0.00273132
31	0xbb3a2dbd	-0.002840861
32	0x3a103866	0.0005501568
33	0x3b35ba0c	0.00277293
34	0xbad5a8ca	-0.0016300913
35	0xbaad8f06	-0.0013241477
36	0xb94dd59c	-0.00019629899
37	0xba156818	-0.000569941
38	0xbb3651d2	-0.0027819765
39	0xba8e993c	-0.0010879408
40	0x3ae0cf2a	0.0017151583
41	0xbbd40de0	-0.0064713806
42	0x3ad6b296	0.0016380127
43	0xbb36edc2	-0.002791271
44	0xbad78680	-0.0016443282
45	0xba009c66	-0.00049061177
46	0xb9d6aa30	-0.0004094406
47	0xb9fa12b8	-0.00047697662
48	0xb8458670	-4.7093665e-05
49	0x394ee648	0.00019731477
50	0x3abffef0	0.0014648121
51	0x383a7428	4.4454035e-05
52	0x39451a4a	0.00018797177
53	0xbb00c2f2	-0.0019647446
54	0xba8e105f	-0.0010838619
55	0x39a8f9cc	0.0003222957
56	0xb98227e3	-0.0002482525
57	0xbb11b72a	-0.0022234418
58	0x3af54bfa	0.0018714659
59	0xbb034c9c	-0.0020034676
60	0x39cd9436	0.00039211073
61	0x3a8bfa20	0.0010679401
62	0xba6fca18	-0.0009147241
63	0x3a7beefa	0.00096105004
64	0x3a1c2e05	0.0005957785
65	0x3a8fa61c	0.0010959539
66	0xba83801e	-0.0010032689
67	0xba1183c0	-0.00055509433
68	0x399981a8	0.00029279036
69	0x39b43956	0.00034374994
70	0xba2fb1b2	-0.0006702199
71	0x38c3b4a4	9.3319715e-05
72	0xb89e9dfa	-7.5634525e-05
73	0xba2e5268	-0.0006649853
74	0xb9e81abe	-0.00044270413
75	0x3997c03c	0.0002894419
76	0xba787bbc	-0.0009478887
77	0xb9a993c8	-0.00032344298
78	0x37192200	9.127427e-06
79	0xb9949c2f	-0.00028345126
80	0x3b001b41	0.0019547495
81	0xb98beea4	-0.00026689947
82	0xbaefdf7f	-0.001830086
83	0x393b2bac	0.00017849979
84	0xbafcde4b	-0.0019292323
85	0x3aae9721	0.0013320186
86	0xb8f7b35c	-0.00011811286
87	0x38b44666	8.5961816e-05
88	0x399c358e	0.0002979454
89	0x3ae7fbcb	0.0017698942
90	0x39c6c573	0.00037912614
91	0xb96c53bc	-0.00022537907
92	0xbb7bf534	-0.0038445713
93	0x3b46d952	0.0030341935
94	0xbb11e77c	-0.002226322
95	0x3a8f9303	0.0010953847
96	0x3acd04d1	0.0015641694
97	0xbb0202a4	-0.0019838
98	0x3a85a347	0.0010195755
99	0xbb172312	-0.0023061675
100	0x3a4f940a	0.0007918483
101	0x3a9f40bc	0.001215003
102	0x3b904b50	0.004403509
103	0x39b34d9a	0.00034199358
104	0xba8959b6	-0.0010479006
105	0xbafd50ee	-0.0019326487
106	0x3984a64a	0.00025300897
107	0x3b3d5750	0.0028891154
108	0x3b2002e0	0.0024415776
109	0xbb176992	-0.0023103696
110	0xba6a789d	-0.00089443644
111	0xba950402	-0.0011368992
112	0xbb0d2fb4	-0.0021543326
113	0xba11c4c2	-0.000556063
114	0x3ae28f52	0.0017285144
115	0x3a9574f6	0.0011402655
116	0xb98d2bd6	-0.00026926276
117	0x3afdc2af	0.0019360388
118	0x39d368be	0.00040323095
119	0xb9d36b39	-0.00040324943
120	0xba387c51	-0.00070375676
121	0xbb3b99e3	-0.002862566
122	0x3b434911	0.002979819
123	0xbb5898b0	-0.0033049993
124	0x37c36e54	2.3297187e-05
125	0xbb6aed15	-0.0035846878
126	0x3a05eb8a	0.00051086454
127	0x3a9fa721	0.0012180546
128	0xba9f6ad0	-0.001216257
129	0xba5000fd	-0.00079347176
130	0xba65bb24	-0.0008763543
131	0xba0841f3	-0.00051978155
132	0xba50acbf	-0.00079603115
133	0xb901a6f0	-0.00012364588
134	0x3995618a	0.00028492167
135	0x3a141291	0.00056485186
136	0xbb00d420	-0.0019657686
137	0x3ab5f573	0.0013882354
138	0x3aae7ea4	0.0013312888
139	0x39e7470e	0.00044112693
140	0xbad1f0ea	-0.0016017233
141	0x3949ba50	0.0001923826
142	0xbb8eddbe	-0.00435993
143	0xbae2ff44	-0.0017318507
144	0xbb344605	-0.0027507555
145	0x3a94db38	0.0011356836
146	0x38a1a990	7.708662e-05
147	0xbb75f5e4	-0.0037530595
148	0xbaa38487	-0.0012475409
149	0xbae886b9	-0.0017740346
150	0xb7b98fc0	-2.2120657e-05
151	0xb8293a30	-4.034693e-05
152	0xbaa61d15	-0.0012673462
153	0xbaf7c7de	-0.001890417
154	0x3af9626c	0.0019026524
155	0x3b298694	0.0025867568
156	0x3adcd5cc	0.0016848384
157	0xba911a54	-0.0011070468
158	0x3b4ca660	0.0031227097
159	0x38ad02fc	8.249839e-05
160	0x3a283e3b	0.00064179645
161	0xba66420a	-0.00087836443
162	0xb9250c2c	-0.0001574016
163	0x392222cd	0.00015462488
164	0x3a28bc94	0.0006436792
165	0xba4dd60c	-0.0007852025
166	0xba2032a3	-0.0006111061
167	0xbab7440a	-0.0013982069
168	0x3af961ac	0.0019026301
169	0xb90229f8	-0.000124134
170	0xb79dd590	-1.8815306e-05
171	0xb980201e	-0.00024437992
172	0xb938b082	-0.00017613362
173	0xb9b771b9	-0.0003498921
174	0xba287b61	-0.00064270763
175	0xba1a5236	-0.0005886884
176	0x3a1e041e	0.0006027835
177	0xba8ce90d	-0.0010750607
178	0x390c486e	0.00013378423
179	0xbac83e39	-0.0015277333
180	0xba8341f6	-0.0010014165
181	0xba055df8	-0.000508755
182	0x3988448f	0.00025991022
183	0xb9e944da	-0.00044492522
184	0xb9d3f2d5	-0.0004042598
185	0xb9d94871	-0.00041443438
186	0xbadbcd1a	-0.0016769499
187	0x395b673c	0.00020923925
188	0xbaffccf8	-0.0019516042
189	0x3ac680bc	0.0015144567
190	0x3a3c5190	0.00071837846
191	0x3995da81	0.00028582293
192	0x3a8c649d	0.0010711137
193	0xbaadd5ca	-0.0013262567
194	0x3aa19fb1	0.0012330917
195	0xbb46427f	-0.0030252037
196	0x3a8c4fb7	0.0010704909
197	0x3abcede7	0.0014414162
198	0x39d2cea0	0.0004020827
199	0x3a181a92	0.0005802299
200	0x3b177e14	0.002311592
201	0xba5f63c3	-0.00085216406
202	0xbab77572	-0.0013996793
203	0xbb3e6655	-0.0029052694
204	0xb98fe6de	-0.00027447095
205	0xb9543d40	-0.00020240713
206	0xba969b0b	-0.0011490298
207	0x3add3284	0.0016876017
208	0xbb3ea242	-0.0029088412
209	0xba7e096f	-0.0009690737
210	0xb9c1abb1	-0.0003693975
211	0x3b7fc108	0.0039024968
212	0xbb4c9b28	-0.003122041
213	0x3bcce84a	0.006253277
214	0x3aa9ed2c	0.001296436
215	0x3b257d2e	0.0025251615
216	0xb97263e8	-0.00023116136
217	0x3b420440	0.0029604584
218	0x3aadcde8	0.0013260217
219	0x3af8e234	0.0018988312
220	0x3b16b824	0.002299794
221	0x3b84d662	0.0040538767
222	0xb9e18b35	-0.00043019062
223	0xbab4edf2	-0.0013803823
224	0xbb24930d	-0.0025112063
225	0x3b23cbe3	0.0024993352
226	0xb9aeefc0	-0.00033366494
227	0x3a94b0ff	0.0011344253
228	0x3b168620	0.0022968128
229	0xbb435c0d	-0.0029809505
230	0xba8848c0	-0.0010397658
231	0xbb6390ff	-0.0034723876
232	0xbb9dbf68	-0.004814077
233	0xb8dd8310	-0.000105625135
234	0xb9b7d16b	-0.00035060509
235	0x3bb88010	0.0056305006
236	0xbb903cf9	-0.0044017998
237	0x394909d8	0.00019172521
238	0xbb24bfde	-0.0025138776
239	0x3b86a718	0.0041092746
240	0xb90cddce	-0.00013434069
241	0xbad12480	-0.0015956312
242	0x3a7bf0c6	0.0009610768
243	0x3910f20e	0.00013823083
244	0x39fbcbe5	0.00048026364
245	0xba68e29e	-0.0008883866
246	0xb99152ee	-0.00027718343
247	0x3b045a4b	0.002019542
248	0x399e44b8	0.00030187308
249	0x3a4b9f0a	0.0007767534
250	0x3ac622a4	0.0015116525
251	0xb96a84e1	-0.0002236548
252	0xba79b8f8	-0.00095261587
253	0xb90e375a	-0.00013562795
254	0xb9f30be4	-0.0004635743
255	0x3a2c5add	0.0006574819

momentum_buffer f4 [64]
0	0xac03a228	-1.8706234e-12
1	0x2e9de19f	7.179612e-11
2	0xaf4ea7b7	-1.8795175e-10
3	0xae19dce7	-3.4984373e-11
4	0x2f9179fc	2.6462021e-10
5	0x2e031916	2.9808232e-11
6	0xa8006d00	-7.129063e-15
7	0x2ef07ceb	1.0936126e-10
8	0xaf8a97bc	-2.5209868e-10
9	0xae48eefe	-4.5687003e-11
10	0x2e386825	4.1929255e-11
11	0xaf4907b0	-1.8283575e-10
12	0x2c767078	3.5021135e-12
13	0x2e37efd0	4.182238e-11
14	0x2eb20b0c	8.096465e-11
15	0xae9ff214	-7.2734846e-11
16	0x2dba0c10	2.1151109e-11
17	0xafb4cb7d	-3.2886396e-10
18	0xafd2c41a	-3.8338116e-10
19	0x2c9bc510	4.4272433e-12
20	0x2f716ffb	2.1958606e-10
21	0x2f0a8d18	1.2601153e-10
22	0xae9045fd	-6.560794e-11
23	0x2f10cdc4	1.3169826e-10
24	0xaedd1896	-1.0054284e-10
25	0xafacedb7	-3.1455524e-10
26	0x3071b907	8.793823e-10
27	0x2f3d1acc	1.719897e-10
28	0xaebf4088	-8.6971375e-11
29	0xb0589261	-7.878836e-10
30	0x2f392627	1.6839206e-10
31	0x2fec92a2	4.303234e-10
32	0xadc8d976	-2.283394e-11
33	0xadad65b0	-1.9712981e-11
34	0x303adb3a	6.7977945e-10
35	0xaf1dc4fc	-1.434905e-10
36	0xaf2a4e32	-1.548919e-10
37	0xaf925d03	-2.6623334e-10
38	0xafbca8e3	-3.4317002e-10
39	0xae68acf0	-5.2904292e-11
40	0xaee1a006	-1.0260241e-10
41	0x2f82e5bd	2.38101e-10
42	0x2eba2882	8.4654964e-11
43	0xaef5efe2	-1.1183922e-10
44	0x2eb19107	8.07479e-11
45	0xae3ba34c	-4.2663914e-11
46	0xade727dc	-2.627936e-11
47	0x2cfe3ae4	7.2256524e-12
48	0xaefdbe7d	-1.15389455e-10
49	0x2e6f46af	5.4405088e-11
50	0xae6132c5	-5.120417e-11
51	0x2e81193a	5.870722e-11
52	0xae38f29e	-4.2052244e-11
53	0xae5cc3d3	-5.0196135e-11
54	0x2f208b6d	1.4601449e-10
55	0x2dadf1ea	1.9775254e-11
56	0xaca11c44	-4.5790333e-12
57	0xaef028ea	-1.0921204e-10
58	0xaea6b6aa	-7.581254e-11
59	0x2ea15a1b	7.337438e-11
60	0xabeba9b0	-1.6744852e-12
61	0xb0162f76	-5.463713e-10
62	0xad86c65c	-1.5322126e-11
63	0x2d929978	1.6666432e-11

momentum_buffer f4 [32, 64]
0	0xbab2f52c	-0.0013653389
1	0x39446dd8	0.00018732937
2	0xba9b767c	-0.0011860873
3	0xbb635a42	-0.003469125
4	0x3cba2bad	0.022725904
5	0x3b998caf	0.0046859602
6	0x3a918ef4	0.0011105225
7	0x3c7d8e32	0.015475797
8	0xbcb7f2bb	-0.02245461
9	0x3c7b937d	0.015354988
10	0x3a123f52	0.00055788935
11	0x3c555d9a	0.013022805
12	0xb9829b2d	-0.00024911147
13	0x3c821580	0.015879393
14	0x3c37a8a0	0.011209637
15	0xbc39eebc	-0.011348423
16	0x3b877671	0.0041339924
17	0x3c8c6e7b	0.017142525
18	0x3c40e964	0.011774395
19	0x3bd473c4	0.006483527
20	0x3b96f372	0.0046066577
21	0x3c8481ed	0.016175235
22	0x3b06d04c	0.0020570932
23	0x39aeea18	0.0003336228
24	0x3c220b3a	0.009890372
25	0x3bd2074d	0.0064095617
26	0x3cca81d0	0.024720103
27	0x3c66ccfc	0.014086958
28	0x3a48c5bc	0.0007658859
29	0x3d1d38ff	0.038384434
30	0x3c9c635b	0.019090345
31	0xbc362676	-0.011117568
32	0x3a5451bc	0.00080993376
33	0x3b03a5d0	0.0020087846
34	0x3c08d071	0.008350478
35	0x3bbc7933	0.0057517528
36	0x3c30f198	0.010799788
37	0x3bb227ec	0.005436888
38	0x3bcd94ee	0.0062738573
39	0xbb343386	-0.002749653
40	0x3bd79cc9	0.0065799695
41	0x3c423af9	0.0118548805
42	0x3bf99df8	0.0076177083
43	0x39c77d38	0.00038049533
44	0x3c7f6ad8	0.015589438
45	0xbb3de4dc	-0.0028975522
46	0xbad368da	-0.0016129271
47	0x3b5b70b6	0.003348393
48	0x3c88f17c	0.016716711
49	0x3bac2089	0.005252902
50	0x3ba93820	0.0051641613
51	0xb93ac660	-0.00017812243
52	0x3c2b117e	0.010441182
53	0x3ca58728	0.02020605
54	0x3b3fe2d8	0.0029279497
55	0x3b3998ac	0.002831976
56	0x3a654382	0.0008745716
57	0xba573bf8	-0.0008210535
58	0x3b334e38	0.0027359854
59	0x3b9cdba9	0.0047869277
60	0x3a8022fe	0.0009776053
61	0xbc08bc7c	-0.008345719
62	0x3ae4bf4d	0.0017452032
63	0x3b2ddfd0	0.0026531108
64	0x3bdb895c	0.006699724
65	0x3c91aa07	0.01778127
66	0x3c39a998	0.011331938
67	0x3c1f5c1d	0.009726551
68	0xbba4b4f4	-0.005026454
69	0xbb698670	-0.003563311
70	0x3b92d4dc	0.004480941
71	0x3a1e0348	0.00060277106
72	0x3ccaaa88	0.024739519
73	0xbc2e81a5	-0.010651027
74	0x3bff49fa	0.007790801
75	0x3b81cc48	0.00396112
76	0x3bf16b5a	0.0073675336
77	0xbb651d88	-0.003496023
78	0xbb92debc	-0.0044821184
79	0x3ba9ce4e	0.005182064
80	0x3aebeaee	0.0017999092
81	0xbaac866c	-0.001316262
82	0x3c22a2ef	0.009926542
83	0x3bcb12fe	0.0061973324
84	0x3a7f1cc6	0.00097317656
85	0xbba92a8b	-0.005162542
86	0x3ba1b41e	0.0049348017
87	0xbaf34731	-0.0018560645
88	0xba8f18e8	-0.0010917457
89	0xb9764078	-0.00023484405
90	0xbbf93419	-0.0076050875
91	0x3a7708f8	0.00094236387
92	0x3b19960e	0.0023435387
93	0xbc4369a5	-0.011927043
94	0x3b998548	0.004685078
95	0x3c8403fb	0.01611518
96	0x3b83a63c	0.0040176194
97	0x3c72fff8	0.0148315355
98	0x3c0fe9e1	0.008783788
99	0x3c04b15d	0.008098927
100	0xbbb3995a	-0.0054809274
101	0xbbb38ea1	-0.005479649
102	0xb94be4b0	-0.00019444781
103	0x3c01fd3a	0.007933909
104	0xbb816027	-0.00394823
105	0xbb97fc32	-0.0046382183
106	0x3acb9b70	0.0015533995
107	0x3bbc9ecc	0.0057562348
108	0xbbad529f	-0.00528939
109	0x3b1a628a	0.002355727
110	0x3bdae1f8	0.0066797696
111	0x3b5a0770	0.0033268593
112	0x3b9b73b7	0.004744019
113	0x3bf248f0	0.0073939487
114	0x3ac879cb	0.0015295086
115	0x3bc3f96e	0.005980662
116	0xbb0840c4	-0.0020790556
117	0xbbe6434c	-0.0070270654
118	0xbaead609	-0.0017916571
119	0x3b63ea6a	0.0034777173
120	0x3bcedd6b	0.006313016
121	0x3baed19e	0.005335047
122	0x3a45cd01	0.00075455016
123	0x3c206858	0.0097905025
124	0x3b76642a	0.0037596324
125	0x3ca346e1	0.019931259
126	0x3bccb45b	0.006247086
127	0x3baaa128	0.0052071996
128	0x3c279c91	0.010230199
129	0xbc89f703	-0.016841417
130	0x3ab7ab26	0.0014012798
131	0x3c2c2fdb	0.0105094565
132	0xbbe0822e	-0.006851456
133	0x3b2d4d89	0.002644392
134	0x3bebf1e8	0.0072004683
135	0xbbfe5fa7	-0.0077628675
136	0xbb0c2d74	-0.0021389397
137	0xbbec1a16	-0.007205258
138	0xbac4a207	-0.0015001901
139	0xbba75071	-0.005106025
140	0x3c094e03	0.008380416
141	0xbbb2b406	-0.0054535894
142	0xbc1db3e8	-0.0096254125
143	0x3c4c6db7	0.01247733
144	0x3b2e2374	0.0026571425
145	0xbd0613d7	-0.032733764
146	0x3b3b208a	0.002855333
147	0xb94ac040	-0.0001933584
148	0xbb8f964f	-0.004381932
149	0xbc553a9a	-0.01301446
150	0x3b7deb7c	0.0038745096
151	0xbc81a3f4	-0.01582525
152	0xbc0783bc	-0.008271154
153	0xbd04a29a	-0.03238163
154	0xbca857f5	-0.020549754
155	0xbc513ab9	-0.012770348
156	0x3bd3e8e8	0.0064669736
157	0xbd1aac84	-0.03776218
158	0xbb578748	-0.003288703
159	0x3c0d4c37	0.008624128
160	0x3bfa1acc	0.007632589
161	0x3b975450	0.004618205
162	0x3be747cc	0.0070581194
163	0xbb85ed5b	-0.004087133
164	0xbc6d88a6	-0.014497912
165	0x3cbd6160	0.023117721
166	0xbc6ba121	-0.014381678
167	0x3be39512	0.006945261
168	0xbc0ee07f	-0.008720516
169	0xbc107e09	-0.008819112
170	0xbc4c9500	-0.012486696
171	0xba5ad830	-0.00083482545
172	0xbbbb09c2	-0.0057079503
173	0x3bd01236	0.006349827
174	0x3c53bb33	0.01292305
175	0x3bba08e6	0.0056773303
176	0xbbefd0ca	-0.007318591
177	0x3b88c220	0.004173532
178	0xbb3e2cd6	-0.0029018424
179	0x3c29e30f	0.010369076
180	0xbbed6d91	-0.0072457273
181	0xbcb96170	-0.02262947
182	0xbc8f51cb	-0.017495057
183	0x3bdf94e7	0.0068231705
184	0x3bf53841	0.0074835126
185	0x3bf3b977	0.0074378806
186	0x3bc49554	0.0059992466
187	0x3c0b46a7	0.008500732
188	0x3be8e6f5	0.0071076103
189	0x3c0d9f47	0.008643932
190	0x3be0de80	0.0068624616
191	0x3bdcd9c2	0.006739826
192	0xbb8e8996	-0.0043498976
193	0x3c6affd2	0.014343219
194	0x3b8052bc	0.0039161127
195	0x3ab76cc0	0.0013994202
196	0xbbfac7db	-0.007653219
197	0xbae961ec	-0.0017805672
198	0xbb83a7c6	-0.004017803
199	0x3be92ae3	0.007115708
200	0x3b92864d	0.0044715763
201	0xbb67ae14	-0.0035351561
202	0xbacc45d4	-0.0015584775
203	0xbbe6349d	-0.007025315
204	0xbba25f01	-0.004955173
205	0x3b938773	0.004502231
206	0xbba0ccd4	-0.00490723
207	0x3b1496eb	0.0022672962
208	0xbae19104	-0.0017209356
209	0xbbc216db	-0.0059231347
210	0xbb93f3de	-0.004515155
211	0x3c2bd7e4	0.010488484
212	0x3b9fe004	0.0048789997
213	0xbb849766	-0.0040463684
214	0xbb0f7e7e	-0.0021895464
215	0x3b964afc	0.0045865756
216	0x3b3e8638	0.00290717
217	0x3ada95d9	0.0016676738
218	0x3b1a5cb5	0.0023553793
219	0x3ba16942	0.004925878
220	0xbac2e40e	-0.0014868991
221	0xbacce7ec	-0.0015633083
222	0x3b487e48	0.0030592848
223	0x3bc9068a	0.0061348127
224	0xbb4042a0	-0.0029336587
225	0x3c607ab2	0.013701128
226	0x3c169cd4	0.009192664
227	0xbb9350e4	-0.004495727
228	0xbbaf4f1c	-0.0053500067
229	0xbc294b6c	-0.010332923
230	0x3ba9f46c	0.005186608
231	0xbbbeb8fc	-0.0058203917
232	0x3beff817	0.007323276
233	0x3bb69bc7	0.0055727693
234	0x3b9c6c91	0.0047736843
235	0x3c1e9fc9	0.00968165
236	0x38a3e3c0	7.8148674e-05
237	0xbb8007fb	-0.0039072013
238	0xbbd6f405	-0.006559851
239	0xbbe10f22	-0.006868259
240	0x39b02ea8	0.00033604098
241	0x3ad50151	0.0016251003
242	0xbb1850fe	-0.0023241634
243	0xbb231c3a	-0.002488865
244	0xba115be0	-0.00055450015
245	0x3bcb3640	0.0062015355
246	0x3b8bf1bd	0.004270761
247	0xbba357d8	-0.004984837
248	0xbb591199	-0.0033122061
249	0xbb76d06f	-0.0037660857
250	0xbbca8f81	-0.006181658
251	0x3c136d55	0.008998235
252	0xbbce2eda	-0.0062922062
253	0x3be20622	0.0068977037
254	0xbb818142	-0.0039521763
255	0xbb43758e	-0.0029824707

momentum_buffer f4 [32]
0	0x3cf27978	0.029598936
1	0x3c7bc2ca	0.015366266
2	0xbc9ed97e	-0.019390818
3	0x3c2f91ca	0.010715911
4	0x3c46e2f6	0.012139073
5	0x3bed1cd3	0.007236102
6	0xbc156700	-0.009118795
7	0xbc75105a	-0.014957512
8	0xbc17d0b2	-0.009266065
9	0xbb28a652	-0.00257339
10	0xbc5d9007	-0.013523108
11	0xbc9cb16f	-0.019127576
12	0xbc274d1a	-0.010211254
13	0xbbedd9a5	-0.0072586113
14	0x3c097eec	0.008392077
15	0x3cb3ae38	0.02193366
16	0x3ba1699d	0.00492592
17	0x3c4262ae	0.011864347
18	0x3c53630c	0.012902033
19	0x3b948997	0.0045330036
20	0x3adcafa8	0.0016837018
21	0xbcb50bdc	-0.022100382
22	0x3bdf48f8	0.0068141185
23	0x3c9edce6	0.019392442
24	0xbbbd3c76	-0.00577503
25	0x3c15f45a	0.009152496
26	0x3a67029a	0.00088123383
27	0xbb9ed3c6	-0.0048470227
28	0x3bd24802	0.0064172754
29	0x3c813fba	0.015777458
30	0xbbad9930	-0.0052978024
31	0x3c17eb65	0.009272431

momentum_buffer f4 [64]
0	0x3a624d2a	0.0008632714
1	0xbbe8e42a	-0.0071072774
2	0xbae6fad3	-0.0017622359
3	0xba82d86f	-0.0009982715
4	0xbbb9a34d	-0.005665219
5	0xbac10554	-0.0014726319
6	0xbadb2764	-0.0016720113
7	0x3be96378	0.0071224533
8	0x3b22495a	0.002476296
9	0x3a1c393e	0.00059594575
10	0x3bfdcbd4	0.0077452455
11	0xbb08f3a8	-0.0020897184
12	0x3b34c2d1	0.002758194
13	0x3b867db5	0.004104341
14	0xbb407b38	-0.002937032
15	0xba80c110	-0.0009823162
16	0x3bb3d92d	0.005488536
17	0xbc360e0c	-0.0111117475
18	0x3bc7bf19	0.0060957787
19	0xbb1e54d4	-0.0024159448
20	0x3adb24a4	0.0016719294
21	0x3a3cf8ce	0.00072087056
22	0x3b417c1a	0.0029523433
23	0x3b93a901	0.004506231
24	0x3af2c0cb	0.0018520592
25	0x3c603293	0.013683933
26	0x3ab0d596	0.0013491388
27	0xbb0258a0	-0.001988925
28	0xbbabca2c	-0.0052426066
29	0xbca93703	-0.020656114
30	0x3b139a3c	0.002252235
31	0xba9fcf38	-0.0012192493
32	0x3b282ebe	0.0025662626
33	0x3b47ff0d	0.0030517012
34	0x3c576768	0.013147213
35	0x3b7e9b70	0.0038849972
36	0x3b25af83	0.0025281615
37	0xbc54000a	-0.012939462
38	0xbbdb1cf8	-0.006686803
39	0x3ab72f31	0.0013975856
40	0x3b1bba62	0.0023762216
41	0x3b7419ea	0.0037246891
42	0x3b0f2c22	0.0021846374
43	0x3b108029	0.0022049046
44	0xbaf37b0a	-0.0018576097
45	0xbb21cdbf	-0.0024689285
46	0x3b2fb0fa	0.0026808367
47	0x3aac74c3	0.0013157356
48	0x3b66b791	0.003520463
49	0x3adfe0fe	0.0017080603
50	0xbac75c11	-0.0015209933
51	0x3a89ae26	0.0010504171
52	0x3a0ed586	0.00054486876
53	0xbbff5373	-0.0077919303
54	0xbb1f5037	-0.0024309286
55	0x3a9de200	0.0012045503
56	0x3b5e942e	0.0033962834
57	0xbbb78884	-0.0056009907
58	0xbb935fc0	-0.0044974983
59	0x3b0d710e	0.0021582278
60	0xbc04f006	-0.008113867
61	0x39978620	0.00028900895
62	0x3b0234fb	0.0019868005
63	0xbb85dd60	-0.004085228

momentum_buffer f4 [64]
0	0x3a750a74	0.0009347566
1	0xbc4de1ca	-0.012566039
2	0xbbc10ce2	-0.0058914283
3	0x3ab989f4	0.0014155493
4	0xbc067ac6	-0.008207982
5	0xbbe78280	-0.0070651174
6	0xbafe4486	-0.0019399084
7	0xbc31078a	-0.01080502
8	0x3b8bb1e6	0.0042631505
9	0xbad6d412	-0.0016390106
10	0xbb3500c6	-0.002761887
11	0xbb0d1f81	-0.002153367
12	0x3b09593e	0.0020957734
13	0x3a4705a2	0.0007592087
14	0xbba0fbcd	-0.0049128295
15	0xbbb7f5de	-0.0056140264
16	0x3b64c4d3	0.0034907355
17	0xbac969f0	-0.0015366655
18	0xbc55653f	-0.013024627
19	0xba3775a8	-0.0006998428
20	0x3c07afaf	0.008281632
21	0xbbb26790	-0.0054444745
22	0x3ba7859f	0.0051123644
23	0x3bd89644	0.00660971
24	0x3b4d7d5a	0.0031355233
25	0x3c0dc771	0.008653508
26	0x3c82a07c	0.015945666
27	0xbc449545	-0.011998479
28	0xbae9a23c	-0.0017824839
29	0xbcfc4ef8	-0.030799374
30	0x3b9e07f6	0.0048227264
31	0x3b6ab4d4	0.0035813348
32	0x3a9b7569	0.0011860552
33	0xbaba0b56	-0.0014194052
34	0x3c9446f4	0.01810024
35	0xba3c89a8	-0.0007192143
36	0x3c82e88a	0.015980024
37	0x3b7b8e0a	0.0038384222
38	0xbc8c9d9f	-0.017165003
39	0x3bc8a28c	0.0061228927
40	0x3bc87f2f	0.006118677
41	0x3a303593	0.00067218504
42	0xbae40460	-0.0017396323
43	0xbbdad16c	-0.006677797
44	0xbb62c030	-0.0034599416
45	0xbbdd241e	-0.0067486903
46	0x3adc4359	0.0016804739
47	0x3a04c07c	0.0005064083
48	0xba9ece00	-0.0012115836
49	0xbaa67794	-0.0012700432
50	0xbb838782	-0.0040139565
51	0x3b883d7c	0.00415772
52	0xbb9bb5db	-0.0047519035
53	0xbc7b948c	-0.015355241
54	0xbaf99f46	-0.001904466
55	0x3bb587a0	0.0055398494
56	0x3bf98662	0.0076148966
57	0x37c2db60	2.3228757e-05
58	0xb8bf5ce0	-9.124889e-05
59	0x3b371133	0.0027933836
60	0x3abb1da2	0.0014275799
61	0xbae4efe0	-0.0017466508
62	0xba2eb03c	-0.0006663834
63	0xbb5c6712	-0.003363077
