src/Elrond/P3_CurrentAnalysis/LDM/outputs/marble/best_model_20240816-145320.pth (torch, 884469 bytes, 14 tensors)

enc.lins.0.weight f4 [64, 1680]
0	0x3d88cb1b	0.06679364
1	0x3d823bea	0.06359084
2	0x3c53bd30	0.012923524
3	0x3c80fd02	0.015745644
4	0xbcbd8dcc	-0.023138903
5	0xbc977dfc	-0.018492691
6	0xbb5e1ab5	-0.003389043
7	0x3d1921ca	0.03738574
8	0x3bdafc3c	0.0066829007
9	0x3d1c27d5	0.038123924
10	0xbcd30686	-0.025759947
11	0xbc1af955	-0.009458859
12	0x3acc08f7	0.0015566637
13	0xbc29cf47	-0.01036436
14	0xbb998402	-0.004684926
15	0x3cfa8611	0.030581506
16	0x3cba0460	0.022707164
17	0x3c3051d1	0.010761694
18	0xbd24be87	-0.040220764
19	0x3c32df0e	0.010917438
20	0x3c438c50	0.011935309
21	0x3c497c8b	0.01229776
22	0xbb9db53a	-0.0048128637
23	0xbc2eb1de	-0.010662524
24	0xbbae0f26	-0.0053118644
25	0xbb91a87c	-0.0044451337
26	0x3ccfda99	0.02537279
27	0x3c944588	0.018099561
28	0x3c32e686	0.010919219
29	0xbd032fc0	-0.03202796
30	0x3c13a763	0.009012076
31	0xbcc2800a	-0.023742694
32	0xbcb98cd1	-0.022650154
33	0x3c4804f5	0.012208213
34	0xbc82b8ac	-0.015957199
35	0xbb4936f3	-0.0030702918
36	0xbcb034fd	-0.021509642
37	0x3cb37c2c	0.021909796
38	0xbcdc487a	-0.026890028
39	0x3cc57996	0.024105828
40	0x3c9d1ce0	0.019178808
41	0xbc8fd0cc	-0.017555617
42	0x3c71cf5e	0.014758913
43	0xbd437b84	-0.047725216
44	0xbc944480	-0.01809907
45	0x3b985e6f	0.0046499292
46	0x3b0b9ca2	0.0021303077
47	0xbc3cd3fe	-0.011525152
48	0x3cd693de	0.026193555
49	0x3c2f3bea	0.010695437
50	0x3c167681	0.009183527
51	0x3c19b540	0.009381592
52	0x3c6215b8	0.0137991235
53	0x3a359ed2	0.0006928268
54	0x3b9ff8eb	0.0048819683
55	0x3c527669	0.012845614
56	0x3bda259b	0.006657315
57	0x3c6cca9a	0.014452601
58	0x3b254a4d	0.0025221289
59	0xbc9f504a	-0.019447464
60	0xbc180a1f	-0.009279757
61	0xbbcabb0c	-0.0061868485
62	0x3c8d09d4	0.0172166
63	0x3ca7cfdf	0.020484863
64	0x3c5a7f76	0.013336053
65	0xbc6da61c	-0.014504936
66	0xba82e7c8	-0.0009987289
67	0xbb3136d6	-0.0027040741
68	0x3b83830a	0.004013424
69	0xbc8d3ace	-0.017239954
70	0x3ce6cb5c	0.028173141
71	0x3c3702f3	0.011170137
72	0xbcbd7861	-0.02312869
73	0xbcbdd738	-0.023173913
74	0x3bfe591f	0.007762089
75	0x3a9bb9d5	0.0011880944
76	0xbc7f6201	-0.015587331
77	0xbc92d647	-0.017924441
78	0x3cc7a93b	0.024372688
79	0x3c7b68ce	0.015344812
80	0x37f2111c	2.8856615e-05
81	0x3b2f4171	0.0026741887
82	0xbb85ae65	-0.0040796273
83	0x3cb79c18	0.022413298
84	0x3c9b48dd	0.018955642
85	0xbbe150e9	-0.0068761003
86	0xbccc97e7	-0.024974776
87	0x3cc41c78	0.023939356
88	0xbc338e80	-0.010959268
89	0x3b38f677	0.0028223076
90	0xbc3bf0bb	-0.011470969
91	0x3b414524	0.0029490674
92	0x3b031157	0.001999935
93	0xbbb03819	-0.005377781
94	0xbc75b0f8	-0.014995806
95	0xbc158125	-0.009125029
96	0xbb6b48a1	-0.0035901444
97	0xbc176598	-0.00924053
98	0xbb031b1e	-0.0020005177
99	0xbc49f5f1	-0.012326703
100	0xbbe7f18b	-0.0070783547
101	0xbbe3600a	-0.006938939
102	0x3c9351b3	0.017983293
103	0x3ca5910d	0.020210767
104	0xbcd1ddac	-0.025618397
105	0xbb4d0b16	-0.0031287125
106	0xbc175a69	-0.009237864
107	0xbca17c52	-0.0197126
108	0xbca19020	-0.019722044
109	0x3bcd274b	0.0062607876
110	0x3c379d19	0.011206889
111	0x3c990d86	0.018683206
112	0x3b3207e4	0.0027165348
113	0x3b7472f5	0.0037299965
114	0x3c7b013e	0.01532012
115	0x3c2a4614	0.0103926845
116	0xbc2b1cf8	-0.010443918
117	0x3c8b38b5	0.016994813
118	0x3c6235ee	0.013806803
119	0xbc9ec647	-0.019381655
120	0xbc10903d	-0.008823452
121	0xbc88e964	-0.016712852
122	0x3c2306a0	0.00995031
123	0xbc193c10	-0.009352699
124	0xbbe3715a	-0.006941003
125	0x3c0a9a37	0.008459619
126	0xbc971844	-0.018444188
127	0x3cd11e88	0.025527254
128	0xbaa3b1ab	-0.0012488862
129	0xbd03588a	-0.03206686
130	0xbcba150c	-0.022715114
131	0xbc081de0	-0.008307904
132	0xbca66efb	-0.020316591
133	0xbc420ebc	-0.011844333
134	0xbc4eeb28	-0.012629308
135	0x3bf32877	0.0074205953
136	0xbc8a1a15	-0.01685814
137	0x3caa45ce	0.020785239
138	0xbd01b086	-0.031662486
139	0xbc806ccf	-0.015676884
140	0xbbf3e42b	-0.007442971
141	0xba62c356	-0.0008650323
142	0x3cd74b99	0.026281165
143	0x3b0c506d	0.0021410242
144	0xbc9c8835	-0.019107917
145	0x3a655101	0.0008747727
146	0xba6250ee	-0.0008633275
147	0xbbce0897	-0.006287645
148	0x3c0d336a	0.008618215
149	0xbc29ca98	-0.0103632435
150	0x3c4888f2	0.012239682
151	0xbc13f451	-0.009030418
152	0x3c9e0c99	0.019293116
153	0xbca0240b	-0.019548437
154	0x3c326a1e	0.010889558
155	0x3c050aaf	0.008120223
156	0xbbe38f29	-0.0069445563
157	0xbc0555c5	-0.008138125
158	0xbb5e72c7	-0.0033942924
159	0x3c83e11d	0.016098553
160	0x3c93d8eb	0.01804777
161	0xbb36ceaf	-0.002789419
162	0xbcd4dd4f	-0.025984434
163	0x3ca5b7e5	0.02022929
164	0xbc370fb4	-0.0111731775
165	0x3c8c6171	0.017136307
166	0xbacd56e0	-0.001566615
167	0x3c20d467	0.009816266
168	0xbc4be1ef	-0.0124440035
169	0x3c9b4b00	0.018956661
170	0xbccba24d	-0.024857664
171	0x3b5239bb	0.0032077867
172	0xbb8cb4cf	-0.004294015
173	0x3c729b88	0.014807589
174	0x3c4b3c8c	0.012404572
175	0xbb406d21	-0.002936192
176	0xbc4a1a8d	-0.012335432
177	0xbbd9e427	-0.0066495123
178	0x3c20a985	0.009806042
179	0xbc8fa06d	-0.017532552
180	0x3a0f3e43	0.0005464295
181	0x3cb915dc	0.022593431
182	0x3c4bc2da	0.012436593
183	0x3cbd431b	0.023103287
184	0x3c87d50f	0.016581086
185	0x3c52ea84	0.012873296
186	0x3c265b95	0.010153671
187	0x3c8f78c4	0.01751364
188	0x3bab49e7	0.0052273157
189	0xbb30c952	-0.0026975465
190	0x3c7d22c7	0.015450186
191	0x3c87757e	0.016535517
192	0xbcd6b15a	-0.026207615
193	0x3c993c06	0.01870538
194	0x3c9300b3	0.01794467
195	0xbcc38766	-0.023868274
196	0xbc04e90c	-0.008112203
197	0x387267a7	5.779383e-05
198	0x3ca362d2	0.019944582
199	0xbc5ab7a6	-0.013349449
200	0x3c1df875	0.009641756
201	0xbca63ccd	-0.020292664
202	0xbaab8a25	-0.0013087435
203	0xbb2680cf	-0.0025406366
204	0xbcc00dd9	-0.023444103
205	0xbcd0eb00	-0.025502682
206	0x3ba5333c	0.005041508
207	0x3b10f59d	0.0022119053
208	0x3b88d923	0.0041762753
209	0xbcb65875	-0.022258976
210	0x3c58ca75	0.013231863
211	0x3c22709e	0.009914545
212	0xbc61afd0	-0.013774827
213	0x3cc65ebf	0.0242151
214	0xbca085c3	-0.019595033
215	0x3c566c3d	0.013087329
216	0xba6b1c0f	-0.00089687196
217	0x3cfbfaa2	0.03075916
218	0x3c681459	0.0141650075
219	0x3b29bf85	0.0025901508
220	0x3ba744b2	0.0051046247
221	0x3bac0d65	0.00525062
222	0x3c6d4cd6	0.014483651
223	0xbbc5f346	-0.0060409633
224	0xbbc42efa	-0.0059870454
225	0x3c8016dc	0.0156359
226	0x3cb451e8	0.022011712
227	0x3c0d0d6f	0.00860916
228	0xbcebc78d	-0.028781677
229	0xbc522ba7	-0.01282779
230	0x3affc9b2	0.0019515066
231	0x3ced7792	0.02898768
232	0xba822cd5	-0.0009931574
233	0xbc9397ce	-0.018016722
234	0x3b8714ff	0.004122376
235	0xbc260888	-0.01013387
236	0xbc82b0bb	-0.015953412
237	0xbd04e626	-0.03244605
238	0x3be03457	0.006842177
239	0x3c0a6228	0.008446254
240	0xbcbef546	-0.023310315
241	0xbcaa88d1	-0.020817192
242	0x3d03b58a	0.03215555
243	0x3c9b105d	0.018928701
244	0xbca84837	-0.020542247
245	0x3b092778	0.0020928066
246	0xbcb736d6	-0.022365015
247	0x3b2f8d8d	0.0026787252
248	0x3b0c29a1	0.0021387117
249	0x3c85205b	0.01625078
250	0x3a302655	0.0006719579
251	0x3c9779ba	0.018490661
252	0x3cc5580c	0.024089836
253	0x3c7e2094	0.015510697
254	0x3ca458a4	0.020061798
255	0xbbb24607	-0.005440477

enc.lins.0.bias f4 [64]
0	0x3c3fd00f	0.01170732
1	0xbc3255e0	-0.010884732
2	0x3c7dd8bc	0.015493568
3	0xbc9504e6	-0.018190812
4	0x3ca80e3d	0.020514602
5	0xbc399ce1	-0.011328907
6	0x3ca97925	0.020687649
7	0xbb0c3dcd	-0.002139914
8	0x3b5853b2	0.003300887
9	0x3cbe38ab	0.02322038
10	0xbbb6f727	-0.005583662
11	0x3c8e9251	0.017403753
12	0xbcae836b	-0.0213029
13	0xbc8fe8ec	-0.01756712
14	0x3c17ffa6	0.00927726
15	0x3c15f40b	0.009152423
16	0x3b9155a7	0.0044352594
17	0xbc81b70e	-0.015834358
18	0x3b8ecc50	0.004357852
19	0x3c74eae5	0.014948581
20	0x3c7377e2	0.014860125
21	0x3c93e6d5	0.018054405
22	0x3c71cebf	0.014758765
23	0xbc832932	-0.016010854
24	0x3c5eb892	0.01359381
25	0xbc138d01	-0.009005786
26	0xbbba7eef	-0.005691401
27	0x395a8f14	0.00020843401
28	0x3ca563f6	0.020189267
29	0x3ca2c83f	0.019870875
30	0x3c8b8273	0.017029976
31	0xbc6de6a7	-0.014520324
32	0x3bbd70f7	0.0057812887
33	0x3a83a189	0.0010042648
34	0x3c834f54	0.016029038
35	0x3c943988	0.01809384
36	0x3b67b541	0.0035355838
37	0xbc891b98	-0.01673679
38	0x3b9ad073	0.004724556
39	0x3ca82d7c	0.020529501
40	0xbc79a5e7	-0.015237308
41	0x3b336d78	0.002737848
42	0x3c2f97d3	0.01071735
43	0x3bb8d5f4	0.0056407396
44	0x3beafe37	0.007171418
45	0x3caa04ac	0.02075418
46	0xbb875a49	-0.004130636
47	0xbc070c7b	-0.008242722
48	0xbbc0cf51	-0.005884089
49	0xbc91bfb1	-0.0177916
50	0x3c9c63f1	0.019090625
51	0x3c917d66	0.01775999
52	0xbc85f354	-0.01635138
53	0xbcb7b005	-0.0224228
54	0x3a8cb091	0.0010733773
55	0xbc4875c4	-0.012235109
56	0xbc9c2cb1	-0.01906428
57	0x3c508974	0.012728084
58	0x3c87d8b3	0.016582822
59	0xbc459fb9	-0.012062007
60	0xbc5ecb9d	-0.01359835
61	0x3c887bb3	0.016660547
62	0xbc8533e8	-0.016260102
63	0x3ca0102d	0.019538963

enc.lins.1.weight f4 [32, 64]
0	0xbda2c995	-0.07948605
1	0xbdeb5636	-0.11491053
2	0x3b1f9dd8	0.0024355557
3	0xbdf136a0	-0.11777997
4	0xbe12612e	-0.14294884
5	0x3d8635fe	0.06553267
6	0xbce36c69	-0.027761655
7	0x3dc735a5	0.09727029
8	0xbd93558e	-0.07194053
9	0xbbfd397f	-0.0077278013
10	0xbd954e17	-0.07290285
11	0x3dc17702	0.09446527
12	0x3dd137c0	0.102157116
13	0x3dc8fbfe	0.09813689
14	0xbdcba8aa	-0.099442795
15	0xbd596b6a	-0.053080954
16	0x3dba03e1	0.09082771
17	0xbde95b03	-0.11394312
18	0xbd5e6690	-0.05429703
19	0x3da7faae	0.0820211
20	0x3dbcb82a	0.09214814
21	0xbd584d24	-0.052807942
22	0xbdd05202	-0.10171892
23	0xbd162971	-0.036660615
24	0x3d5d5052	0.054031678
25	0xbdf7677d	-0.12080286
26	0xbcbac8ca	-0.022800822
27	0x3d903da4	0.07043007
28	0xbd732000	-0.05935669
29	0xbd82ba8e	-0.06383239
30	0x3dc9df53	0.09857049
31	0x3da11f6f	0.078673236
32	0x3d871dae	0.06597458
33	0x3c6bafa7	0.0143851405
34	0x3da4fe79	0.08056349
35	0xbdb78884	-0.08961585
36	0x3dc3c493	0.09558978
37	0x3d899f38	0.06719822
38	0x3d8ef1a1	0.06979681
39	0x3d265a3e	0.040613405
40	0x3c113af2	0.008864151
41	0x3c172afb	0.009226556
42	0xbd7ae28e	-0.061251216
43	0x3d837ed6	0.064206764
44	0xbd2e500c	-0.042556807
45	0xbd2a639e	-0.04159891
46	0xbc771fff	-0.015083312
47	0x3d33a8fe	0.043862335
48	0xbd6f49b3	-0.058419894
49	0x3dcf9c59	0.10137243
50	0xbe06d2de	-0.13166377
51	0xbd03dd59	-0.032193515
52	0x3d9e370b	0.07725342
53	0xbdba4219	-0.090946384
54	0xbd753846	-0.05986812
55	0x3dc40694	0.09571567
56	0x3d7cc5cc	0.06171207
57	0xbdfd30a3	-0.12362792
58	0x3a5ff023	0.0008542558
59	0x3c968fd3	0.018379128
60	0xbca6e046	-0.020370614
61	0x3c5e2b1a	0.013560081
62	0xbd762b30	-0.06009978
63	0xbdf14230	-0.117802024
64	0x3ce24509	0.02762081
65	0xbd0399ef	-0.032129224
66	0xbcfaea40	-0.030629277
67	0x3d150700	0.03638363
68	0xbdab7b5d	-0.08373139
69	0xbd61bd11	-0.05511195
70	0xbb47d47c	-0.003049164
71	0xbbd87952	-0.0066062594
72	0x3d34d25d	0.04414593
73	0xbdca7072	-0.098847285
74	0xbd99487d	-0.07484529
75	0x3de3fe0f	0.11132442
76	0xbd85d20e	-0.065342054
77	0xbdd99104	-0.10623363
78	0x3dd9ef02	0.1064129
79	0xbd7569f2	-0.05991549
80	0x3cc099c9	0.02351083
81	0x3ddd95a1	0.10819555
82	0x3d8c8575	0.068613924
83	0xbd601d35	-0.054715354
84	0x3ddc3fd8	0.10754365
85	0xbdba7c62	-0.091057554
86	0x3b86cd0c	0.004113799
87	0xbdf0e138	-0.11761707
88	0x3c3b23eb	0.011422138
89	0x3d202655	0.039099056
90	0x3de0808b	0.109620176
91	0x3db31f22	0.087461725
92	0xbdd68cb2	-0.10476054
93	0x3dc66082	0.09686376
94	0x3daa7873	0.08323755
95	0x3da32b57	0.07967251
96	0xbdc665be	-0.096873745
97	0xbbb2abaa	-0.005452593
98	0x3ce2a825	0.027668068
99	0x3df5f92c	0.120104164
100	0x3d0ba37f	0.03409147
101	0x3ae1cae2	0.0017226601
102	0x3cb73351	0.022363337
103	0x3dae4417	0.08509081
104	0xbd6af33d	-0.057360876
105	0xbdba5e58	-0.09100026
106	0xbdf10d9a	-0.117701724
107	0xbd8fa8b8	-0.070146024
108	0xbd92a681	-0.07160664
109	0x3e0e420f	0.13892387
110	0xbd6d0e00	-0.05787468
111	0xbd1ae6a3	-0.03781761
112	0xbc0830d1	-0.00831242
113	0xbc8c30a2	-0.017113034
114	0x3ceae21d	0.028672272
115	0x3b82c7b0	0.0039910898
116	0x3df6e6a5	0.12055711
117	0xbddaf7cd	-0.106917955
118	0x3d92cb10	0.07167637
119	0x3da48a14	0.08034149
120	0x3d8f1fce	0.06988488
121	0xbc589104	-0.013218168
122	0x3df18299	0.11792488
123	0x3e041178	0.12897289
124	0xbc911b5f	-0.017713247
125	0xbb579bca	-0.0032899254
126	0xbc00bb3a	-0.007857138
127	0x3c291ebb	0.010322268
128	0xbdf21fbc	-0.11822459
129	0xbd0854de	-0.03328406
130	0x3dc5c77c	0.09657189
131	0xbe017a63	-0.12644343
132	0xbd0f936e	-0.03505271
133	0xbdbb25bf	-0.09138059
134	0x3d4dd08b	0.05024771
135	0x3deee7e2	0.11665322
136	0xbdc45e0c	-0.095882505
137	0x3ddcee95	0.107876934
138	0x3dcb13c8	0.09915882
139	0xbc35b190	-0.0110896975
140	0x3d44321c	0.04789935
141	0x3d05adb8	0.032636374
142	0xbbea047c	-0.007141648
143	0xbdfc4084	-0.12316993
144	0xbcae6473	-0.021288132
145	0x3d9e600d	0.07733164
146	0x3d04cf4d	0.03242426
147	0x3d37c176	0.044862233
148	0xbd94a05a	-0.07257147
149	0x3b51aee0	0.0031995103
150	0x3d47116b	0.048600595
151	0x3cfec4b2	0.031099651
152	0xbdb08959	-0.08619947
153	0xbddfcb1f	-0.10927414
154	0x3dcba32d	0.09943233
155	0xbce65be0	-0.028119981
156	0x3a95b7ff	0.0011422633
157	0x3da3f2be	0.08005284
158	0xbc551274	-0.013004888
159	0xbdf9a502	-0.12189676
160	0x3baaddc6	0.0052144257
161	0x3dec61c5	0.115420856
162	0xbdb5a601	-0.08869553
163	0xbc6b67f9	-0.014368051
164	0xbe0bc345	-0.13648708
165	0xbd9bf274	-0.07614604
166	0x3c16d667	0.009206391
167	0xbc02af2d	-0.0079763355
168	0xbdfc043f	-0.123054974
169	0xbd9daba0	-0.076987505
170	0x3d36bbd1	0.04461271
171	0xbbde9119	-0.0067921993
172	0xbe032aa3	-0.12809233
173	0xbd225b52	-0.03963787
174	0x3da4f57a	0.080546334
175	0x3da513d6	0.08060424
176	0x3d708e77	0.058729615
177	0x3d94e34c	0.07269916
178	0x3dbc0d2a	0.09182198
179	0x3d95d2df	0.07315611
180	0x3d03b32b	0.03215329
181	0x3de4610d	0.111513235
182	0x3d18466f	0.037176546
183	0x3d4f182b	0.050560158
184	0xbdf5006c	-0.11962971
185	0x3d7ecca9	0.062206898
186	0x3d965fcf	0.07342493
187	0x3d822058	0.06353825
188	0xbd811f6c	-0.06304821
189	0xbd9f852f	-0.07789075
190	0x3ddc354b	0.10752352
191	0xbbe95b97	-0.007121514
192	0x3db168e0	0.086625814
193	0xbd5f217c	-0.054475293
194	0x3c8563f2	0.01628301
195	0xbb2a806c	-0.0026016487
196	0x3dbaa1b6	0.09112875
197	0x3c48f9dd	0.012266603
198	0xbc024921	-0.007952006
199	0x3c779be0	0.015112847
200	0xbde3d3f3	-0.111244105
201	0xbd758711	-0.059943262
202	0xbdf588af	-0.11988961
203	0xbdcfc1e8	-0.101444066
204	0x3cb98852	0.02264801
205	0xbda134d3	-0.078714035
206	0x3ca05e8b	0.019576332
207	0xbdb3d35a	-0.087805465
208	0xbd2a9fe5	-0.041656394
209	0x3dac2f0a	0.084074095
210	0xbd9a9d6a	-0.075495556
211	0x3c0840b6	0.00831621
212	0xbd2c818f	-0.042115744
213	0xbdc13790	-0.09434426
214	0x3dbdef0f	0.092741124
215	0xbc6f634e	-0.014611078
216	0x3c320314	0.010864992
217	0x3d6f3a7b	0.05840538
218	0x3de681f5	0.11255256
219	0xbde190ac	-0.11013922
220	0x3dd0836f	0.10181319
221	0xbd8d1e8a	-0.068905905
222	0x3dbdd62d	0.092693664
223	0x3c43024b	0.011902402
224	0xbd4f85e7	-0.05066481
225	0xbd9805f3	-0.0742301
226	0x3da3b1ef	0.079929225
227	0xbdccd74f	-0.10002004
228	0x3dcba67a	0.09943862
229	0xbc50654f	-0.012719466
230	0x3d8a3742	0.06748821
231	0xbd6ee222	-0.058321126
232	0xbca1c634	-0.01974783
233	0xbdad68dd	-0.08467267
234	0xbb583c2a	-0.0032994845
235	0x3d66adc6	0.056318067
236	0x3d173eb9	0.03692505
237	0xbd0e17e0	-0.034690738
238	0x3d6b889a	0.05750332
239	0xbc01f8b2	-0.007932829
240	0xbdb2a732	-0.08723296
241	0xbd8a8a36	-0.06764643
242	0xbca62ead	-0.020285929
243	0xbd00fbe3	-0.031490218
244	0x3daddb41	0.08489085
245	0x3cfd5dd0	0.030928522
246	0x3c0a97c1	0.0084590325
247	0xbd156bd9	-0.036479805
248	0x3de3faf2	0.111318484
249	0xbc26a568	-0.010171272
250	0x3d674505	0.056462307
251	0xbd1a0564	-0.037602797
252	0x3cfbedf5	0.030753115
253	0x3da7cb6d	0.08193097
254	0xbd8a3c58	-0.06749791
255	0x3d054c02	0.03254319

enc.lins.1.bias f4 [32]
0	0x3d983959	0.07432813
1	0xbdf8e7be	-0.12153576
2	0xbcc23efd	-0.023711676
3	0x3d16e62b	0.0368406
4	0xbcc3bfab	-0.023895105
5	0xbd086722	-0.03330148
6	0x3dae6206	0.0851479
7	0xbdd9a16c	-0.10626492
8	0x3e0f2dfd	0.13982387
9	0x3d792524	0.060826436
10	0x3cd55c2b	0.026044926
11	0x3c514387	0.012772447
12	0xbc258b95	-0.01010408
13	0x3de830fd	0.11337469
14	0xbe2a5baa	-0.1663653
15	0x3dbee0e1	0.09320236
16	0xbcdaeabf	-0.026723264
17	0x3dc35e8c	0.09539518
18	0x3dd4de00	0.10393906
19	0x3de717fb	0.11283871
20	0x3d7601fd	0.06006049
21	0x3d105545	0.03523757
22	0xbda0d6e6	-0.078534886
23	0xbd1d0fa2	-0.038344987
24	0xbc695b1f	-0.014242916
25	0x3c8e1921	0.017345967
26	0x3d7d6460	0.061863303
27	0xbdca219a	-0.0986969
28	0x3d4400fc	0.0478525
29	0x3d81be6e	0.0633515
30	0x3d96f36e	0.07370649
31	0xbe608953	-0.21927385

enc.norms.0.module.weight f4 [64]
0	0x3f7dbaca	0.9911314
1	0x3f8090f8	1.0044241
2	0x3f7fc8c2	0.9991571
3	0x3f7f9c01	0.9984742
4	0x3f7f1974	0.99648213
5	0x3f7fe4f3	0.99958724
6	0x3f7f56bc	0.9974172
7	0x3f7f990c	0.99842906
8	0x3f804f86	1.0024269
9	0x3f7ebdc5	0.99508315
10	0x3f817698	1.0114317
11	0x3f80b296	1.00545
12	0x3f7d3bae	0.9891919
13	0x3f7cca53	0.9874622
14	0x3f818b9a	1.0120728
15	0x3f7f4956	0.99721277
16	0x3f7fc816	0.9991468
17	0x3f80cf50	1.0063267
18	0x3f8081ee	1.0039651
19	0x3f80197d	1.0007778
20	0x3f7fe2a2	0.9995519
21	0x3f807266	1.0034912
22	0x3f7f22bc	0.99662375
23	0x3f7fccc1	0.99921805
24	0x3f7d8d8e	0.9904412
25	0x3f8050d5	1.0024668
26	0x3f80149a	1.0006287
27	0x3f7e8f85	0.99437743
28	0x3f7f3e74	0.9970467
29	0x3f814b25	1.0101057
30	0x3f80b4d6	1.0055187
31	0x3f7ff300	0.99980164
32	0x3f7e548b	0.9934775
33	0x3f800a4a	1.000314
34	0x3f7ebd11	0.9950724
35	0x3f8102d5	1.0078989
36	0x3f807b47	1.0037621
37	0x3f7f86a1	0.998148
38	0x3f800cd5	1.0003916
39	0x3f7f4456	0.9971365
40	0x3f805d0f	1.0028399
41	0x3f7f2770	0.9966955
42	0x3f7f1a19	0.99649197
43	0x3f7eb5e1	0.99496275
44	0x3f7f668b	0.99765843
45	0x3f7e8385	0.9941943
46	0x3f7ee7e7	0.99572605
47	0x3f7fa7cb	0.99865407
48	0x3f80d9a3	1.0066417
49	0x3f81b9f3	1.0134872
50	0x3f7f1dab	0.99654645
51	0x3f7ffba4	0.9999335
52	0x3f80423c	1.0020213
53	0x3f807431	1.0035459
54	0x3f7f4711	0.99717814
55	0x3f7efb82	0.9960252
56	0x3f803857	1.0017194
57	0x3f80d0ec	1.0063758
58	0x3f7f3fbe	0.9970664
59	0x3f802cda	1.0013688
60	0x3f7d82ba	0.990276
61	0x3f8014ef	1.0006388
62	0x3f7ef108	0.99586535
63	0x3f7f3ff7	0.9970698

enc.norms.0.module.bias f4 [64]
0	0x3ba21ca0	0.00494726
1	0x3b2e3d0f	0.0026586687
2	0x3bddd03c	0.0067692082
3	0xbc688f5c	-0.014194336
4	0x3ca432e0	0.02004379
5	0x3c1b395f	0.009474128
6	0xbc68cb81	-0.014208675
7	0x3bf19b9e	0.0073732873
8	0x3c961259	0.018319296
9	0xbc93bdf5	-0.018034915
10	0x3bbbd516	0.005732189
11	0xbc39c46b	-0.011338334
12	0xbc3c46af	-0.011491462
13	0xbb97b15d	-0.0046292976
14	0x3bd6dd6d	0.0065571577
15	0xbb29d76c	-0.0025915755
16	0x3badd489	0.005304877
17	0xbc18b155	-0.009319623
18	0xbc228709	-0.00991989
19	0x3cdc2c74	0.026876666
20	0x3c74e678	0.014947526
21	0x3c3e380b	0.011610041
22	0x3a0d78ea	0.0005396741
23	0x3c06862e	0.008210702
24	0x3c3973aa	0.01131908
25	0x3c3bd90e	0.011465324
26	0x3bc982d4	0.006149629
27	0xbbb237f0	-0.005438797
28	0x3bc1ae12	0.0059106434
29	0x3ca2520e	0.019814517
30	0x39c1693a	0.00036890229
31	0x3c19e8eb	0.009393911
32	0xbbb9e9a9	-0.0056736064
33	0x3c961b9e	0.018323716
34	0xba64c7c5	-0.0008727278
35	0xbb944c42	-0.004525692
36	0x3bd4620a	0.0064814137
37	0xba610150	-0.00085832644
38	0x3cf848f2	0.03030822
39	0xbbf7dbec	-0.0075640585
40	0x3b65f887	0.003509076
41	0xbc560c4c	-0.013064455
42	0x3b8df053	0.0043316274
43	0xbbb8e902	-0.005643011
44	0x3abc3335	0.0014358523
45	0xbc2dc1a7	-0.010605252
46	0x3ba2b29c	0.0049651396
47	0xbc0dc3d0	-0.008652642
48	0x3c63116f	0.013859137
49	0x3d1f7a23	0.038934838
50	0x3c668930	0.014070794
51	0xbc2255f0	-0.009908184
52	0x3bdc2197	0.0067178714
53	0x3cb635f5	0.022242526
54	0xbb929665	-0.004473495
55	0xbc0eaf47	-0.008708782
56	0xbbecea49	-0.0072300774
57	0xbbad09b3	-0.0052806973
58	0x3beb3a13	0.007178554
59	0x3c1e2d5a	0.009654367
60	0xbc205ce2	-0.00978777
61	0x3cdcce92	0.02695397
62	0xbbbfb5c0	-0.0058505237
63	0x3b1d1b56	0.0023972592

enc.norms.0.module.running_mean f4 [64]
0	0x3e3378e4	0.17526585
1	0x3a3068e6	0.0006729498
2	0x3eba47b0	0.36382818
3	0x3daa080b	0.08302315
4	0x3e0fcde5	0.14043386
5	0x3d9fc378	0.078009546
6	0x3e4d97d1	0.20077445
7	0xbe5ff7b0	-0.21871829
8	0x3ed98474	0.42483866
9	0x3c934f2e	0.017982092
10	0xbf0049ef	-0.50112814
11	0xbe36607b	-0.17810242
12	0x3ec0bb6a	0.37642986
13	0xbdcad9ca	-0.09904821
14	0xbf0ee6d5	-0.5582097
15	0x3e977aa4	0.29585755
16	0x3e87f6dd	0.2655553
17	0x3d96cf46	0.07363753
18	0xbe380966	-0.17972335
19	0x3ea003c3	0.3125287
20	0xbda1910c	-0.078889936
21	0xbe2f727c	-0.17133516
22	0x3e65b7dc	0.22433418
23	0x3e1b9cd0	0.15196538
24	0xbbe186e0	-0.0068825334
25	0x3ee9c2aa	0.4565633
26	0xbe24fa8b	-0.161112
27	0xbee3d2aa	-0.4449666
28	0x3e858c92	0.2608381
29	0xbf0f641f	-0.5601215
30	0x3da8d7fd	0.082443215
31	0x3ee27584	0.44230282
32	0xbe84186f	-0.2579989
33	0x3d95c583	0.07313063
34	0xbd82ce4a	-0.06387003
35	0xbe2612fe	-0.16218182
36	0xbe610fb1	-0.21978642
37	0xbeea0c44	-0.45712483
38	0x3f45d3f8	0.77276564
39	0x3e1aa4f0	0.15101981
40	0x3dcb5fb7	0.099303655
41	0x397196cd	0.00023039729
42	0xbd8c056b	-0.06836971
43	0x3d1952dd	0.03743254
44	0x3c6178f7	0.01376175
45	0xbd0fdaf6	-0.035120927
46	0xbe44a6ae	-0.19204208
47	0xbe34abbc	-0.17643636
48	0xbe4e5942	-0.20151237
49	0x3e2e2a46	0.17008314
50	0xbde3b74d	-0.11118946
51	0x3ef12d4c	0.4710487
52	0xbed74865	-0.4204742
53	0x3f003ee3	0.5009596
54	0x3d995bd8	0.07488221
55	0xbe48c8a7	-0.19607793
56	0xbe5dab27	-0.2164732
57	0x3df28144	0.11841062
58	0xbc6dd64a	-0.0145164225
59	0x3e86d29a	0.2633255
60	0xbe8cf72c	-0.27532327
61	0xbe7a479a	-0.24441376
62	0xbd351e21	-0.044218186
63	0x3e8cd56b	0.27506575

enc.norms.0.module.running_var f4 [64]
0	0x42f27bbf	121.24169
1	0x4333461c	179.27386
2	0x42900e60	72.028076
3	0x4384a503	265.28915
4	0x434c63ef	204.39037
5	0x4387fcd5	271.97525
6	0x4329ee43	169.93071
7	0x439db002	315.37506
8	0x42a7f800	83.984375
9	0x436ae873	234.908
10	0x4372c9ad	242.7878
11	0x432bb61b	171.71135
12	0x4331c104	177.75397
13	0x43ae476d	348.558
14	0x436d5950	237.34888
15	0x4331b535	177.70784
16	0x42abd81a	85.92207
17	0x43512bdf	209.17137
18	0x436884ee	232.51926
19	0x4393afe0	295.37402
20	0x4393e87d	295.8163
21	0x436175c0	225.45996
22	0x437f810d	255.5041
23	0x42d2d1fd	105.41013
24	0x439ca52d	313.29044
25	0x42518a72	52.3852
26	0x4299d816	76.92204
27	0x43202d18	160.17615
28	0x42c41655	98.04362
29	0x43a165df	322.79587
30	0x433a25f4	186.14825
31	0x43178742	151.52835
32	0x4320c2d7	160.7611
33	0x435a07cd	218.03047
34	0x425eb694	55.6783
35	0x431464b1	148.39333
36	0x42c94b3b	100.646935
37	0x4278e125	62.219868
38	0x43a7978e	335.18402
39	0x4313563c	147.33685
40	0x434864f9	200.39442
41	0x430e3c18	142.23474
42	0x433b4d14	187.30109
43	0x430e86e0	142.52686
44	0x42a4be76	82.371994
45	0x431f616d	159.38057
46	0x42aec805	87.39066
47	0x433b1e12	187.11746
48	0x42cb6406	101.69536
49	0x43945baa	296.71613
50	0x428ec152	71.37758
51	0x4384b105	265.38297
52	0x43606ff6	224.43735
53	0x42e730c1	115.59522
54	0x4316856c	150.52118
55	0x432e6d81	174.42775
56	0x43324cc9	178.29994
57	0x435ce70b	220.90251
58	0x42c2d608	97.41803
59	0x42895870	68.67273
60	0x43473ae9	199.23012
61	0x43a3d8c3	327.69345
62	0x430ed00a	142.81265
63	0x43064ad1	134.29225

momentum_buffer f4 [64, 1680]
0	0x3d118d9b	0.035535436
1	0xbc854c47	-0.016271723
2	0x3bb97a6d	0.0056603462
3	0x3b627c62	0.0034559001
4	0xbc224ca1	-0.009905965
5	0xbaa9ff18	-0.0012969701
6	0x3c05248a	0.008126387
7	0x3c550726	0.013002193
8	0xbbc49bea	-0.0060000317
9	0xbb9611df	-0.004579767
10	0x3b6fa320	0.0036565736
11	0xbb088643	-0.002083198
12	0x3be330ed	0.0069333226
13	0x3b569f1a	0.003274864
14	0x3b94628c	0.0045283493
15	0xbbd32a00	-0.006444216
16	0x3b0094b9	0.0019619896
17	0x3bb4973b	0.005511192
18	0xba4efb6e	-0.00078957423
19	0x3bbd0e64	0.0057695378
20	0x3b45c6cf	0.0030178314
21	0xba589f5a	-0.00082634913
22	0x3a8cab7a	0.0010732256
23	0x3a673102	0.00088192534
24	0xbac194bb	-0.0014769057
25	0xbb9167ec	-0.0044374373
26	0x3b41ffab	0.0029601853
27	0xbc0f1557	-0.008733115
28	0xbc3323d2	-0.010933833
29	0xbc298072	-0.010345565
30	0xba71d895	-0.00092256936
31	0xbb8b664a	-0.004254137
32	0xbb13d373	-0.0022556453
33	0xbb166512	-0.0022948426
34	0xbb862bbc	-0.004094569
35	0x3b9d69d1	0.004803874
36	0xb9008270	-0.00012255623
37	0x3aaebbcb	0.0013331113
38	0x39ce21c8	0.0003931655
39	0xbb604fa6	-0.0034227162
40	0x3aa43eea	0.0012530957
41	0x3baddbc2	0.005305738
42	0xbb4b8174	-0.0031052502
43	0x3be4b083	0.0069790496
44	0xb891b69c	-6.9481524e-05
45	0x39a74a2a	0.0003190798
46	0x3a3cfd2b	0.0007209356
47	0x3af74998	0.0018866537
48	0x3a9f34e0	0.0012146495
49	0x3aaace0e	0.001303138
50	0x3ac465c4	0.0014983942
51	0x3ad4869b	0.0016214432
52	0xbb33275b	-0.002733669
53	0xb8b0e128	-8.4342726e-05
54	0xb9f0914a	-0.00045884616
55	0xb6950d80	-4.4421176e-06
56	0xbadc3570	-0.0016800594
57	0xb9b0c9b1	-0.00033719608
58	0x3a0a499f	0.00052752526
59	0xb9f255fb	-0.00046221897
60	0x394f0f63	0.0001974679
61	0xba55bde6	-0.0008153602
62	0x3a2bf8d2	0.00065602094
63	0x3a3a27d7	0.00071012735
64	0x39c4db0d	0.0003754724
65	0x3af0154f	0.0018316897
66	0x3a26d67e	0.0006364359
67	0x3709a180	8.2034385e-06
68	0x392fb0b0	0.00016755122
69	0x3a7780b3	0.000944148
70	0xba055a75	-0.00050870265
71	0x3a429c6b	0.0007423821
72	0xba883221	-0.0010390916
73	0x3a0a878d	0.0005284481
74	0xbaca115f	-0.0015416554
75	0x3a69540f	0.00089007703
76	0xba7ee074	-0.0009722777
77	0xb84a7d20	-4.8277085e-05
78	0xb8c1aaf0	-9.234797e-05
79	0x39942806	0.0002825858
80	0x3aaa68d2	0.001300121
81	0x3879eb56	5.95854e-05
82	0xbae1f17c	-0.0017238106
83	0xb8eb3008	-0.0001121462
84	0xbb11b888	-0.0022235233
85	0xb69a5e40	-4.60053e-06
86	0x39b2ff05	0.0003414081
87	0xba66ca4c	-0.00088039483
88	0x38d9a2be	0.000103776794
89	0x3ab21f8a	0.0013589722
90	0x397174e2	0.00023027093
91	0x3a9e05f1	0.0012056214
92	0xba049fb4	-0.0005059198
93	0x3b08982e	0.002084266
94	0xbaa7e294	-0.0012808614
95	0x39a04e70	0.0003057602
96	0x3a9daf90	0.0012030471
97	0x3a694b15	0.0008899433
98	0x3b2e08e6	0.0026555597
99	0x3a39694f	0.0007072882
100	0x3b5449e4	0.0032392675
101	0x3a648395	0.0008717117
102	0x3aad2064	0.0013208506
103	0xbb1c7ed0	-0.0023879297
104	0x3a3e1bce	0.0007252068
105	0xba22a46f	-0.0006204312
106	0x3aa5a39c	0.001263726
107	0x38b16b7d	8.460039e-05
108	0xba4f535c	-0.0007908845
109	0x3a1d97aa	0.00060116744
110	0x3a7111e9	0.0009196089
111	0x3b08b44e	0.0020859423
112	0xb9e95276	-0.0004450266
113	0xbaea6d06	-0.0017885275
114	0xba0cbe8f	-0.00053689716
115	0xbac4c6a0	-0.0015012808
116	0xb9b4baef	-0.00034471552
117	0x3aaffd33	0.00134269
118	0xbb8386b7	-0.004013862
119	0x3ac7640e	0.0015212314
120	0xbb6a90ee	-0.0035791951
121	0x3b55ad3d	0.0032604479
122	0x3a5de3d2	0.0008464429
123	0x3abd4f82	0.0014443251
124	0x3b4e52b4	0.00314824
125	0x3928e988	0.00016108726
126	0xba957873	-0.0011403695
127	0xbafba8ef	-0.0019200126
128	0x3b66571d	0.0035147138
129	0xb9c82222	-0.00038172404
130	0xbb11ef05	-0.002226771
131	0x3b1b83c2	0.0023729657
132	0x3b22e61e	0.0024856399
133	0xba95d6e6	-0.0011431843
134	0xbb641a71	-0.00348058
135	0xbac9926a	-0.0015378718
136	0xbab24764	-0.0013601598
137	0x3ab911ab	0.0014119645
138	0xbabb3cf5	-0.0014285134
139	0xb90ab4d8	-0.00013228075
140	0xbaabe053	-0.0013113118
141	0x39b1dc2c	0.00033924112
142	0xb85ed920	-5.3131138e-05
143	0xb945c428	-0.00018860458
144	0x3a77abae	0.00094478845
145	0xbabe9e45	-0.0014543018
146	0xbb9fa1a9	-0.0048715663
147	0x3a93280e	0.0011227147
148	0x3a9580d1	0.0011406188
149	0xb98e09f2	-0.0002709176
150	0xbade4aa1	-0.0016959497
151	0x38ad6e98	8.2698825e-05
152	0x3a68d4c4	0.0008881802
153	0x3b0abba9	0.0021168983
154	0x3b089710	0.0020841993
155	0x3af4e84a	0.001868495
156	0x39100ef8	0.00013738486
157	0xbb2005e5	-0.0024417576
158	0xba500500	-0.00079353154
159	0x3a8020a2	0.000977535
160	0xb8dbe902	-0.00010486135
161	0xbad7f7be	-0.0016477031
162	0x395ffaca	0.00021360363
163	0xbaf83cac	-0.001893898
164	0x37888050	1.6272214e-05
165	0xbb069d38	-0.0020540487
166	0x39055c70	0.00012718304
167	0x3afd3dc1	0.0019320772
168	0x3a1bff61	0.0005950835
169	0x39cc2526	0.0003893759
170	0x3a541d46	0.000809152
171	0xba12e2e0	-0.0005603265
172	0xbad23992	-0.0016038886
173	0x3ad1ab22	0.0015996436
174	0xb989c770	-0.0002627927
175	0x3a66b7ca	0.00088011904
176	0x3aaadd35	0.0013035896
177	0x3ad1cba0	0.001600612
178	0x3aa9bbc2	0.0012949633
179	0x3aa5f926	0.0012662753
180	0xb9f60894	-0.00046927168
181	0x3a811688	0.0009848634
182	0xb94adae7	-0.00019345769
183	0xbb31d8b6	-0.0027137226
184	0x39823a72	0.00024839077
185	0xbae60425	-0.0017548843
186	0x3b5f9cae	0.0034120488
187	0xba45eb90	-0.0007550055
188	0xbb9b5d36	-0.004741336
189	0x37a17f40	1.9251951e-05
190	0xb981e6e0	-0.00024776813
191	0x3b0a4f4d	0.0021104396
192	0xbb16f968	-0.0023036841
193	0xbaa2bfc4	-0.001241677
194	0x37452dd0	1.1752782e-05
195	0x3a810d78	0.0009845933
196	0xbac48778	-0.0014993986
197	0x3a6f55ca	0.000912991
198	0xba0aabbd	-0.0005289873
199	0x3a86dcc1	0.0010289178
200	0x3ac6ae2a	0.0015158106
201	0x3bb3af47	0.005483541
202	0xb9a8cb2b	-0.0003219483
203	0x3bc6f6b0	0.006071888
204	0x3b368d5b	0.002785525
205	0x3ac5fa8a	0.0015104574
206	0xbb06cf22	-0.0020570238
207	0xbbbd2abb	-0.005772916
208	0x3aaeda2c	0.0013340167
209	0xbb0b6330	-0.0021268837
210	0xbb53d1c4	-0.0032321075
211	0x3bba6737	0.0056885737
212	0x3b5a055e	0.003326736
213	0xbb58d53d	-0.0033086084
214	0xba70e394	-0.0009189185
215	0xbb1ba334	-0.00237484
216	0xbb931622	-0.0044887224
217	0xbb9d5f06	-0.0048025874
218	0x3aed2f37	0.0018095736
219	0xbbbc434b	-0.0057453266
220	0xbb2a9011	-0.0026025812
221	0xb9e4edf8	-0.0004366485
222	0xbb28a1e5	-0.0025731262
223	0x3ba436e8	0.005011428
224	0x39e4293c	0.0004351827
225	0x3b2da578	0.0026496332
226	0xbb9b26ab	-0.004734834
227	0x3b823206	0.0039732484
228	0x3c5d0c38	0.013491683
229	0x3ba4a2e2	0.0050243
230	0x3b29b054	0.0025892453
231	0xbbb3193d	-0.005465655
232	0x3c163f23	0.009170326
233	0x3b44d9db	0.0030037079
234	0x3b6f2590	0.0036490895
235	0xb8956920	-7.124455e-05
236	0xb9f199c8	-0.00046081678
237	0xbba65eee	-0.0050772345
238	0xb7e07ac0	-2.676004e-05
239	0x3b02663e	0.0019897367
240	0x3a9bc7f9	0.0011885158
241	0x39fd3435	0.00048294818
242	0x399b1c0c	0.000295848
243	0x3a987d6b	0.0011634057
244	0x3794ae40	1.7724116e-05
245	0xb94b2172	-0.00019372048
246	0xb9f46f7a	-0.00046622363
247	0xbac50ccc	-0.0015033721
248	0x39db0331	0.00041773313
249	0x3adba5ce	0.0016757788
250	0x3a8e2eb2	0.0010847657
251	0x3a47f217	0.0007627322
252	0x3a33bfba	0.00068568776
253	0x3aa94036	0.0012912813
254	0xbab77459	-0.0013996466
255	0xb9bc70a6	-0.00035942084

momentum_buffer f4 [64]
0	0x2e73aba0	5.5404237e-11
1	0xaf80a044	-2.339694e-10
2	0x2f6f22d6	2.17493e-10
3	0x2db86381	2.0962567e-11
4	0x2df7c9c8	2.8170258e-11
5	0xaf049878	-1.2059498e-10
6	0xae2c98f7	-3.9244132e-11
7	0x2f9191a6	2.6478836e-10
8	0xaed95614	-9.883308e-11
9	0xae586840	-4.9205306e-11
10	0xae358811	-4.1275487e-11
11	0xad88d0f5	-1.5554205e-11
12	0x2d49d3a1	1.1472518e-11
13	0x2f2b7a3b	1.5595784e-10
14	0xace874a0	-6.6067846e-12
15	0xad8a2f1a	-1.5709701e-11
16	0x2f412cad	1.756912e-10
17	0xae8d7646	-6.432947e-11
18	0xadc5a567	-2.246976e-11
19	0x2ea33a57	7.422745e-11
20	0x2e10e7d2	3.2947707e-11
21	0x2e49e340	4.5903947e-11
22	0xac3e0a10	-2.700621e-12
23	0xaf475c06	-1.8131638e-10
24	0x2df00b32	2.7289813e-11
25	0x2f609e7b	2.0428985e-10
26	0xaf6c8b6a	-2.1513605e-10
27	0x2d868660	1.529371e-11
28	0x2d99f060	1.7500834e-11
29	0xaf393de7	-1.6847644e-10
30	0xae120d5d	-3.3208426e-11
31	0x2fa41046	2.984299e-10
32	0xaea64229	-7.5605584e-11
33	0xab5e01c0	-7.887267e-13
34	0x2fc74997	3.6250178e-10
35	0x2e75866c	5.582594e-11
36	0xae943f23	-6.741476e-11
37	0xae3e5e47	-4.3284733e-11
38	0xade1c298	-2.5665955e-11
39	0x2d6e487c	1.35448285e-11
40	0xaec0c530	-8.766177e-11
41	0xae6ff108	-5.4556387e-11
42	0xaef0c01b	-1.0948061e-10
43	0x3029353f	6.155751e-10
44	0x2f966c4c	2.736179e-10
45	0x2e2dcba2	3.9516508e-11
46	0xae4bea29	-4.6364832e-11
47	0x2e04d6f9	3.020426e-11
48	0xaf2a4e3c	-1.5489204e-10
49	0xaefea8a4	-1.1580539e-10
50	0x2f61d66e	2.0539812e-10
51	0x2e306dfc	4.0115453e-11
52	0xaf3a233e	-1.6929122e-10
53	0x2f2060eb	1.4586347e-10
54	0xae53cbfd	-4.8157024e-11
55	0xae1aa200	-3.515943e-11
56	0x2d0be43c	7.951913e-12
57	0xad8b5516	-1.5840256e-11
58	0xaf933e14	-2.6783253e-10
59	0x2d41e5b0	1.1021781e-11
60	0x2ef4af23	1.1126946e-10
61	0xaf905e26	-2.6260344e-10
62	0x2d4e99c6	1.1743889e-11
63	0x2d4752d6	1.1330234e-11

momentum_buffer f4 [32, 64]
0	0xbc067f51	-0.0082090655
1	0xbb901fd6	-0.0043983264
2	0xbc0dd068	-0.008655645
3	0xbbb263d3	-0.005444029
4	0x3a24584a	0.00062692596
5	0x39c89af0	0.0003826241
6	0xbb9a4041	-0.0047073667
7	0xbc0c2700	-0.00855422
8	0xbbfd52c0	-0.007730812
9	0xbb9c2822	-0.0047655264
10	0xbc20a066	-0.009803867
11	0xbba553d0	-0.0050453916
12	0xbbbb27fd	-0.005711554
13	0x3a50698a	0.0007950297
14	0xbbc9a468	-0.006153632
15	0xbc211946	-0.009832686
16	0xbc3b9b68	-0.011450626
17	0xb9875722	-0.00025814126
18	0xbbb4c2f4	-0.0055164043
19	0xbb316a66	-0.0027071475
20	0xb859b110	-5.1901734e-05
21	0xbc8b69ce	-0.017018225
22	0xbbbe4250	-0.005806245
23	0xbc42b31c	-0.011883523
24	0xbbf9e60a	-0.0076262997
25	0xbc9a816e	-0.018860545
26	0x3bb486ce	0.005509234
27	0xbbad35e1	-0.005285964
28	0xbc12a250	-0.008949831
29	0xbca8525d	-0.020547086
30	0xbba6eefe	-0.005094408
31	0x3ba4829d	0.005020453
32	0xbbb67161	-0.005567715
33	0xbc110944	-0.008852307
34	0xbc1da52b	-0.009621899
35	0xbb474886	-0.0030408218
36	0xbc1cfc56	-0.009581646
37	0xbc163036	-0.009166768
38	0xbc39cb4c	-0.011339974
39	0xbbdb4631	-0.006691717
40	0xbba4086c	-0.005005887
41	0x3bab2a33	0.0052235364
42	0xbbcbc6f9	-0.0062187877
43	0x3b0b8a6a	0.0021292218
44	0x3b1ae314	0.0023633884
45	0xbc1f6ec1	-0.009730996
46	0xbb74eab3	-0.0037371337
47	0xbbb52760	-0.0055283755
48	0x3c637f72	0.013885366
49	0x3bc3ce4f	0.0059755216
50	0xbc6cc661	-0.014451594
51	0xbbcfe018	-0.0063438527
52	0xbb7cd5d5	-0.0038579602
53	0xbca5323f	-0.02016556
54	0x379bb760	1.856283e-05
55	0xbb9a0408	-0.0047001876
56	0xbbbe27a7	-0.005803067
57	0xbbe29822	-0.0069151083
58	0x3ba70e28	0.005098123
59	0x3c77d756	0.015127024
60	0xbc026090	-0.007957593
61	0xbc592d65	-0.013255452
62	0xbc0c33d2	-0.008557277
63	0xbbe98ed0	-0.0071276203
64	0x3ae5de6e	0.0017537603
65	0xbb189c74	-0.0023286613
66	0x3abc6250	0.0014372561
67	0xbb2ed275	-0.0026675735
68	0xbc04eca0	-0.008113056
69	0xbb6c97f3	-0.003610131
70	0xbb491598	-0.0030683037
71	0x3c1972f7	0.009365789
72	0x3a766e68	0.0009400607
73	0xbad6c033	-0.0016384184
74	0x3bae9b02	0.005328537
75	0xbb7cabae	-0.0038554478
76	0xbaa0f106	-0.0012278862
77	0x3ada3f3f	0.0016650929
78	0xba88f634	-0.0010449351
79	0xbb33d679	-0.0027441068
80	0x3c194846	0.00935561
81	0xbbdb083d	-0.0066843317
82	0xbaf015e8	-0.0018317075
83	0x3c0d7760	0.008634418
84	0x3b4549a0	0.0030103698
85	0x3bde1cdf	0.006778344
86	0xba82d2dd	-0.0009981055
87	0x3c295c5e	0.010336963
88	0x3c07fa0e	0.008299364
89	0x3c8931eb	0.016747436
90	0x3b02b62e	0.0019945013
91	0x3a53e390	0.00080829207
92	0x3ae1ac2d	0.001721745
93	0x3c4e2f0d	0.01258446
94	0xba69b65a	-0.0008915417
95	0xbbe475a8	-0.0069720335
96	0x3a71d008	0.00092244195
97	0x3bd426ac	0.0064743366
98	0x3bac33cd	0.0052551986
99	0xbb5c466a	-0.0033611306
100	0xbbb8f54a	-0.005644475
101	0x3a33349a	0.00068361463
102	0x3c10fe70	0.008849725
103	0x385268aa	5.0165378e-05
104	0xb9c29be6	-0.00037118717
105	0xbbd103f8	-0.006378647
106	0xb9ecbde2	-0.000451549
107	0x3c5c0b5f	0.013430445
108	0xbbcb13e8	-0.0061974414
109	0xb9a45d75	-0.00031350148
110	0xbb8d6bee	-0.0043158447
111	0xbabc3c9e	-0.0014361327
112	0xbb793a2e	-0.0038029063
113	0xbab57330	-0.0013843533
114	0xbb54b3f7	-0.00324559
115	0xba8e136e	-0.0010839531
116	0x3c7d4f0c	0.015460741
117	0x3c3c9a08	0.011511333
118	0xbbe5b080	-0.007009566
119	0xbb43afdb	-0.0029859457
120	0x3b2875c6	0.0025704964
121	0xbb0306b9	-0.001999302
122	0xba0c5868	-0.000535375
123	0xbc83ca18	-0.016087577
124	0xba0a6701	-0.0005279631
125	0x3c1ae04f	0.009452893
126	0xbb1fa478	-0.0024359506
127	0xbb1c1e9c	-0.0023821956
128	0x3c086c94	0.008326668
129	0x3b087b2f	0.0020825376
130	0x3a417874	0.00073803146
131	0x3b0bda79	0.0021339937
132	0xbabb31ef	-0.0014281849
133	0xbabe85dc	-0.0014535743
134	0x3a27902c	0.0006392028
135	0x3c91e0ba	0.017807353
136	0xbb11327d	-0.0022155338
137	0x3ba91dc6	0.00516102
138	0x3c70847b	0.014680023
139	0x3b761b8e	0.0037553045
140	0x3b15cd93	0.0022858127
141	0x3aa57d67	0.0012625874
142	0x3c4852de	0.012226788
143	0x3bf0b565	0.0073458427
144	0x3a8ebea0	0.0010890551
145	0x3a9a337a	0.0011764609
146	0x3b466de8	0.0030277912
147	0x3be84d6f	0.007089309
148	0xb9eda780	-0.0004532896
149	0x3c0ca9b9	0.008585387
150	0x3bb7e9b8	0.0056125782
151	0xbb8fbb9d	-0.004386379
152	0x3b7e05b2	0.003876072
153	0xbbc4b264	-0.006002711
154	0x3b10024b	0.0021974023
155	0x3c3d78c2	0.011564435
156	0x3b961a65	0.004580783
157	0x3ca26eea	0.019828279
158	0x3b370e5a	0.0027932138
159	0x3bf38b20	0.0074323565
160	0x3b767902	0.0037608747
161	0x3c83fe30	0.016112417
162	0x3a931d1a	0.0011223883
163	0x3928d900	0.00016102567
164	0xbbe6ad3f	-0.0070396955
165	0xbc03257b	-0.0080045415
166	0x3c1813f6	0.009282103
167	0x3b829d8b	0.0039860657
168	0xbb77bf80	-0.0037803352
169	0xbaf29800	-0.0018508434
170	0x3ab91774	0.001412137
171	0x3c599256	0.013279518
172	0xbb12af8a	-0.0022382461
173	0x3b6e3933	0.0036350011
174	0xbb09c212	-0.0021020216
175	0x3b71bef8	0.0036887508
176	0x3c86d23d	0.016457671
177	0x3c5ac38f	0.013352289
178	0x3b35ea16	0.0027757934
179	0x3b5c6726	0.0033630817
180	0x3c283ef2	0.010268914
181	0x3b959f79	0.0045661298
182	0xbb937c54	-0.004500905
183	0x3ab304ca	0.0013658043
184	0x3c0e3789	0.008680233
185	0x3ae7f530	0.0017696973
186	0xbb16d5c2	-0.0023015593
187	0xbada0409	-0.0016633283
188	0x3b8c9ca5	0.0042911344
189	0x3a743c30	0.000931683
190	0x3b03b682	0.0020097797
191	0x3bb2ca46	0.005456242
192	0xbb7b9c00	-0.0038392544
193	0xba951db2	-0.0011376648
194	0xbbd6137d	-0.006533085
195	0x39eb2ea2	0.00044857437
196	0xbb144175	-0.0022622023
197	0x3b3b699e	0.0028596888
198	0x391e1eff	0.00015079601
199	0xbbc46370	-0.005993299
200	0x3ae3e5cc	0.001738721
201	0xb9031844	-0.00012502173
202	0xbc1547e9	-0.009111383
203	0xba5c242e	-0.0008397725
204	0xb9a8cd7d	-0.00032196558
205	0xbb00431d	-0.0019571253
206	0xba97fca7	-0.0011595682
207	0x3a7f3c7c	0.0009736491
208	0xbb26a12c	-0.0025425656
209	0x3a2a4db4	0.0006496564
210	0xba980ce9	-0.0011600527
211	0xbb1c56a1	-0.0023855346
212	0x3adc9eb6	0.0016831968
213	0xbbb307b8	-0.0054635666
214	0xba24a42b	-0.00062805664
215	0xbb9c1e57	-0.004764359
216	0xbb93df64	-0.004512714
217	0xba90fd30	-0.0011061784
218	0x3aaddf03	0.0013265315
219	0xbae4c08c	-0.0017452403
220	0x3a6eca1b	0.00091090956
221	0xbc0d4370	-0.008622035
222	0xb84254c9	-4.6332167e-05
223	0xbbc9087e	-0.0061350456
224	0xba811cb3	-0.0009850472
225	0xbb96c545	-0.004601153
226	0x3b57597e	0.0032859738
227	0x3b0b640b	0.0021269347
228	0x3c2cdc74	0.010550607
229	0x3b5a0681	0.0033268037
230	0xbbbd0010	-0.0057678297
231	0xb8776ec9	-5.8992566e-05
232	0x3b778802	0.0037770276
233	0x3bd50998	0.006501388
234	0x3b17880f	0.0023121869
235	0xbc1cd090	-0.00957121
236	0x3b6f7874	0.0036540302
237	0xb9189433	-0.00014551058
238	0x3b365088	0.0027818996
239	0xbae8d8c1	-0.0017764793
240	0xbba3e9ee	-0.005002252
241	0xbb323dc4	-0.002719746
242	0x3bb35310	0.0054725483
243	0x39e51e7b	0.00043700993
244	0x3b235cb1	0.0024927075
245	0xbc0c10f8	-0.008548968
246	0x3b27ec0c	0.0025622873
247	0x3a70fddc	0.00091931014
248	0xbb592f04	-0.0033139596
249	0x392f2d36	0.00016706143
250	0x3af2b119	0.0018515914
251	0x3b0fbba2	0.0021931906
252	0x390cf2ac	0.00013441843
253	0xbba32252	-0.0049784565
254	0x39c96236	0.0003841088
255	0x3a82a321	0.0009966829

momentum_buffer f4 [32]
0	0xbcf5a634	-0.029986478
1	0x3ca87443	0.02056325
2	0x3c38d104	0.011280302
3	0xbc2dbba4	-0.010603819
4	0x3bed7c12	0.0072474563
5	0xbc39de2f	-0.011344477
6	0xbcdf1283	-0.027230507
7	0xbc5e8174	-0.013580669
8	0xbcc68128	-0.024231508
9	0xbc441ef1	-0.011970268
10	0xbc3a2faa	-0.011363903
11	0xbc32750e	-0.010892166
12	0x3c524bcb	0.012835453
13	0xbc7ede78	-0.01555597
14	0x3cbd0976	0.0230758
15	0xbbcea2b8	-0.0063060187
16	0x3c295f70	0.0103376955
17	0xbb9b0312	-0.0047305906
18	0xbca1b4b2	-0.019739483
19	0xbb29a304	-0.0025884518
20	0xbcc78792	-0.024356637
21	0xbb2615ec	-0.0025342656
22	0x3c349b92	0.011023419
23	0x3cf65f90	0.030074865
24	0xbc14a321	-0.009072096
25	0x3b016ce2	0.0019748737
26	0x3c80a05d	0.015701467
27	0xbc555600	-0.013020992
28	0xbce02d58	-0.027365372
29	0xbcc3e428	-0.023912504
30	0xbd25123c	-0.040300593
31	0x3d1353f2	0.03596873

momentum_buffer f4 [64]
0	0xba5bb806	-0.00083816086
1	0x3a3af445	0.0007131736
2	0xbbb5d8aa	-0.00554951
3	0x3a57e35a	0.0008235477
4	0xbbe59ab6	-0.0070069684
5	0x3bb92556	0.0056502027
6	0xba76f263	-0.0009420274
7	0x3be5953e	0.0070063164
8	0xb92faaf5	-0.00016752987
9	0xba8e47e2	-0.0010855163
10	0x3bc7b8ae	0.0060950136
11	0x3affca40	0.0019515231
12	0x3a04d299	0.0005066782
13	0xba03e0ac	-0.0005030732
14	0x3b2c1e7d	0.002626329
15	0xbb715548	-0.0036824513
16	0x3add83dd	0.001690026
17	0xbb3fe2e0	-0.0029279515
18	0xba87cd50	-0.001036087
19	0xb93b71a0	-0.00017876038
20	0xbb6477dc	-0.003486148
21	0x3bc79e6b	0.006091883
22	0x3b5e0983	0.003388018
23	0xbca5e588	-0.02025105
24	0x392d1520	0.00016506435
25	0x3a960d58	0.0011448069
26	0xbbb2a280	-0.0054515004
27	0x3a997faf	0.0011711026
28	0xbacd5df6	-0.0015668261
29	0x3c20bb02	0.009810211
30	0xbb1b7aee	-0.0023724395
31	0xb9b244c8	-0.00034002052
32	0x3afcc887	0.0019285836
33	0x3b026d97	0.0019901746
34	0x3b5340fa	0.0032234774
35	0xbabc43c4	-0.0014363457
36	0x3c6c81ba	0.014435226
37	0x3b1d830a	0.0024034404
38	0xbc1e04b6	-0.009644678
39	0x3925680f	0.00015774391
40	0x3b1925eb	0.0023368548
41	0xbbec0460	-0.00720267
42	0x39fe9fc0	0.00048565678
43	0x3af9cb65	0.0019057809
44	0x3bb681a0	0.0055696517
45	0xb91e7acc	-0.000151138
46	0x3b2c1ed6	0.0026263497
47	0x39b01e55	0.00033591935
48	0x3c333c52	0.010939674
49	0x3bbb0ec6	0.0057085482
50	0x3c91a49e	0.01777869
51	0x3a43bf65	0.00074671797
52	0x3ba34f90	0.00498385
53	0xbb0c09b2	-0.0021368084
54	0xbb2fa8ed	-0.0026803568
55	0x3a01acda	0.00049467164
56	0xbabd16e2	-0.0014426375
57	0x3b140c1a	0.002259022
58	0xba8ee930	-0.0010903236
59	0xbbd6b733	-0.006552601
60	0x3ac08902	0.0014689269
61	0xbbfeef6f	-0.0077800076
62	0x3afd8701	0.0019342602
63	0xba10e8d2	-0.0005527857

momentum_buffer f4 [64]
0	0xbbbdbec6	-0.005790564
1	0x3bf64e39	0.007516649
2	0xbbeb17e3	-0.0071744784
3	0x3b47da1f	0.0030495
4	0xbc2515b3	-0.010075974
5	0x3ca16770	0.019702643
6	0x3b1bbf1f	0.002376504
7	0xba9e080c	-0.0012056842
8	0xbbc39a88	-0.0059693493
9	0xb98c52b4	-0.000267645
10	0x3b5515a0	0.003251411
11	0x3c553732	0.013013648
12	0xbb0878dc	-0.002082399
13	0xba5061d4	-0.0007949148
14	0x3a9fbf63	0.0012187775
15	0x3a2815c1	0.0006411933
16	0x3a0af556	0.000530084
17	0xbb63abee	-0.003473993
18	0x3a71acf8	0.0009219195
19	0x3c19081b	0.009340311
20	0x398d40f8	0.0002694202
21	0x3bf71b83	0.0075411214
22	0x3b15a82c	0.0022835834
23	0xbc8b65e3	-0.017016357
24	0xbc10c6b4	-0.008836437
25	0xbb57b874	-0.003291634
26	0x3aa4e7de	0.0012581309
27	0x3b8cd37a	0.004297671
28	0xbac40d41	-0.0014957563
29	0xbc1a3e74	-0.009414304
30	0x3b3397ac	0.0027403636
31	0x3b63a4aa	0.0034735599
32	0x3a84b59e	0.0010124927
33	0x3bddd2d6	0.0067695184
34	0xbbaf962c	-0.005358478
35	0x3c0f98d6	0.008764466
36	0x3cacd4ec	0.021097623
37	0xb8d494b0	-0.00010136643
38	0xbcac8e16	-0.021063846
39	0x3a709eb0	0.000917892
40	0x3c11c8ff	0.008898019
41	0x3c82291f	0.015888749
42	0x3bdee194	0.0068017934
43	0xb9cc9e30	-0.0003902777
44	0x3b1b8d94	0.002373551
45	0x3b579ad8	0.003289869
46	0x3b044808	0.0020184536
47	0x3b3d08db	0.002884439
48	0x3c39d6d9	0.011342728
49	0x3ba88518	0.005142819
50	0x3ba8ad22	0.005147592
51	0x3b74421a	0.0037270845
52	0x3916f696	0.00014396975
53	0xbbd791e5	-0.0065786713
54	0xb8f34849	-0.00011600607
55	0x3ad24a68	0.0016043903
56	0x3a469722	0.0007575621
57	0xba37a1e6	-0.0007005021
58	0xbaa00f08	-0.0012211511
59	0xbbf4bd54	-0.0074688587
60	0x3bc25671	0.005930715
61	0xbc9d0c32	-0.019170854
62	0x3a83336a	0.001000983
63	0x3aa3cfe4	0.0012497869
