src/Elrond/P3_CurrentAnalysis/LDM/outputs/marble/last_model_20240816-145320.pth (torch, 886069 bytes, 14 tensors)

enc.lins.0.weight f4 [64, 1680]
0	0x3da6b82b	0.08140596
1	0x3d664dd0	0.05622655
2	0x3caa1695	0.020762721
3	0x3c8f3ee0	0.017486036
4	0xbc9a458f	-0.018831996
5	0xbcb6f886	-0.022335302
6	0xbb9ea130	-0.0048409924
7	0x3d169d59	0.036771152
8	0x3bef73e9	0.0073075187
9	0x3d3a0d8d	0.04542308
10	0xbce535dd	-0.027979786
11	0xbc98b32a	-0.01864012
12	0x3bf36c3d	0.0074286745
13	0xbc5df3d3	-0.013546902
14	0xbc18b188	-0.0093196705
15	0x3cbf191d	0.023327405
16	0x3ce4eb6d	0.027944291
17	0x3c659cf1	0.0140144685
18	0xbd2a0883	-0.041512024
19	0x3c76130c	0.01501919
20	0x3bf371e1	0.007429347
21	0x3c27f462	0.0102511365
22	0xbb7e6e68	-0.0038823131
23	0xbc7240ea	-0.0147859845
24	0xbbf94f53	-0.007608333
25	0x3b1826aa	0.0023216405
26	0x3ccf9f45	0.0253445
27	0x3c99b80a	0.018764514
28	0x3c81a4a9	0.015825586
29	0xbcf2975c	-0.02961319
30	0x3c1d5e91	0.009605066
31	0xbcc52bd2	-0.024068747
32	0xbcabcfef	-0.020973174
33	0x3c15c60e	0.009141458
34	0xbc852b50	-0.016256005
35	0xbb1f6e99	-0.0024327396
36	0xbcb5ab6a	-0.022176463
37	0x3caa242f	0.020769207
38	0xbcf98b08	-0.030461803
39	0x3ca40134	0.020020105
40	0x3c99cd9f	0.018774806
41	0xbcb0e133	-0.021591758
42	0x3c4ede9a	0.012626315
43	0xbd3af9cf	-0.045648392
44	0xbca13d1d	-0.019682461
45	0x3b7dbcda	0.00387173
46	0x3b3b9b31	0.0028626437
47	0xbc33c030	-0.010971114
48	0x3cde32a0	0.02712375
49	0x3c2a4d1c	0.010394361
50	0x3c2abc81	0.010420919
51	0x3c19f98d	0.009397876
52	0x3c58981b	0.0132198585
53	0x3addac17	0.0016912249
54	0x3b89f612	0.004210242
55	0x3c4b49f1	0.012407766
56	0x3bebcc8f	0.007196016
57	0x3c667201	0.014065267
58	0x3ab97411	0.001414897
59	0xbca7435e	-0.020417865
60	0xbc201314	-0.009770174
61	0xbbe0ae57	-0.0068567204
62	0x3c87d98f	0.016583232
63	0x3ca7a812	0.020465884
64	0x3c599dfe	0.013282297
65	0xbc7465fa	-0.014916891
66	0xbb0f53d4	-0.0021870034
67	0xbb36e4cf	-0.0027907377
68	0x3b85c9d0	0.004082896
69	0xbc91335e	-0.01772469
70	0x3cdda112	0.027054343
71	0x3c34efff	0.011043548
72	0xbcb79cd3	-0.022413647
73	0xbcc314d9	-0.023813652
74	0x3c0f3d53	0.008742648
75	0x3aa6e8f1	0.0012734217
76	0xbc6eba23	-0.014570746
77	0xbc8d6cae	-0.017263737
78	0x3ccde0aa	0.025131542
79	0x3c78f569	0.015195229
80	0x3a7abbc4	0.00095647224
81	0x3b40917d	0.0029383593
82	0xbba7568f	-0.005106754
83	0x3cb702f1	0.02234027
84	0x3c9730e0	0.018455923
85	0xbbc7192e	-0.0060759997
86	0xbcc5ebc6	-0.024160277
87	0x3cc20e7a	0.023688544
88	0xbc370d56	-0.011172613
89	0x3af245cf	0.0018483939
90	0xbc34c003	-0.011032107
91	0x3b682baa	0.0035426416
92	0x3b48c85a	0.0030636997
93	0xbbbbc75a	-0.0057305517
94	0xbc7f760b	-0.0155921085
95	0xbc0b78f7	-0.008512727
96	0xbb818572	-0.0039526755
97	0xbc03660c	-0.008019935
98	0xbb02f503	-0.0019982464
99	0xbc3d317f	-0.011547445
100	0xbbc40c7a	-0.0059829326
101	0xbbba051e	-0.0056768795
102	0x3c91088b	0.017704269
103	0x3c9e3df3	0.019316649
104	0xbccff901	-0.025387289
105	0xbb448175	-0.002998439
106	0xbc08c534	-0.008347798
107	0xbc9ce0ca	-0.019150157
108	0xbca5a22f	-0.020218937
109	0x3bb46e9c	0.0055063497
110	0x3c3a0f87	0.011356241
111	0x3c9d4b00	0.019200802
112	0x3b5330ef	0.0032225212
113	0x3b2036e4	0.002444678
114	0x3c6bc2f8	0.014389746
115	0x3c10d0d3	0.00883885
116	0xbc327433	-0.010891962
117	0x3c8c37d8	0.017116472
118	0x3c50a2d8	0.0127341375
119	0xbc9157d1	-0.01774207
120	0xbc1cf907	-0.009580857
121	0xbc8f2d25	-0.017477581
122	0x3c301177	0.010746351
123	0xbc024282	-0.007950427
124	0xbbd0d368	-0.006372858
125	0x3bef4802	0.007302285
126	0xbc90c8a3	-0.017673796
127	0x3cdec195	0.027191916
128	0xbb6fa678	-0.003656773
129	0xbd019ed4	-0.03164561
130	0xbcb58672	-0.022158835
131	0xbbec80e5	-0.007217514
132	0xbcbd8c59	-0.023138212
133	0xbc38bce6	-0.011275506
134	0xbc19a663	-0.009378049
135	0x3b9b7ddc	0.004745228
136	0xbc9d03c7	-0.01916684
137	0x3ca6210d	0.020279432
138	0xbd02e937	-0.031960692
139	0xbc730ff6	-0.014835348
140	0xbc21397b	-0.009840365
141	0xbb386528	-0.0028136466
142	0x3ce55516	0.027994674
143	0x3b2e4d07	0.0026596205
144	0xbc9f1d67	-0.0194232
145	0x386fa437	5.7134977e-05
146	0xba9c3b54	-0.0011919537
147	0xbc0f4389	-0.008744129
148	0x3c2ee1f3	0.010673988
149	0xbc34e4cb	-0.011040877
150	0x3c28afe7	0.010295845
151	0xbc164463	-0.009171578
152	0x3ca77fa3	0.020446604
153	0xbca72ce0	-0.02040714
154	0x3c341963	0.010992381
155	0x3bfa21ed	0.007633439
156	0xbc03085d	-0.007997599
157	0xbc0d26ad	-0.008615178
158	0xbadc1bac	-0.0016792915
159	0x3c774416	0.015091917
160	0x3c8f5754	0.017497696
161	0xbb81b1e8	-0.0039579757
162	0xbcdbbb26	-0.026822638
163	0x3ca2b00f	0.019859342
164	0xbc2bc78b	-0.0104845865
165	0x3c96857a	0.018374193
166	0xbaa446a3	-0.0012533258
167	0x3c2e8e35	0.010654022
168	0xbc55fd5e	-0.013060896
169	0x3ca2a49a	0.019853879
170	0xbcbc3cfe	-0.022978302
171	0x3b9d27f4	0.0047960225
172	0xbb965cc5	-0.0045886957
173	0x3c69e38e	0.014275445
174	0x3c3ccf97	0.011524103
175	0xbb205121	-0.002446242
176	0xbc4a29a6	-0.012339031
177	0xbc162c8c	-0.009165894
178	0x3c2a588c	0.010397088
179	0xbc94309f	-0.01808959
180	0x3a80a45f	0.0009814611
181	0x3cb9ee05	0.022696504
182	0x3c6660bf	0.014061152
183	0x3cb431bd	0.021996373
184	0x3c687f54	0.014190514
185	0x3c674e1e	0.014117746
186	0x3c208a28	0.009798564
187	0x3c929cf7	0.017897112
188	0x3bd67f7c	0.006545959
189	0xbb14949e	-0.002267159
190	0x3c66d5c0	0.014089048
191	0x3c7ed0c6	0.015552705
192	0xbcd9b9b2	-0.026577804
193	0x3c90d747	0.017680777
194	0x3c8a8f96	0.01691417
195	0xbcc4fd1a	-0.02404647
196	0xbc01870b	-0.007905732
197	0x3a843ec3	0.0010089505
198	0x3cadb669	0.021205144
199	0xbc754909	-0.014971026
200	0x3c6b8506	0.014374977
201	0xbcaa5396	-0.02079181
202	0xbb1167e9	-0.002218718
203	0xbb36a9c8	-0.0027872194
204	0xbcba119a	-0.022713471
205	0xbccbe767	-0.024890615
206	0x3bc0dc51	0.0058856388
207	0xba4868f8	-0.0007645036
208	0x3b35c386	0.002773495
209	0xbcc01938	-0.023449525
210	0x3c3965fe	0.011315821
211	0x3c05ebed	0.008173925
212	0xbc439b39	-0.011938863
213	0x3cbc7727	0.023006035
214	0xbc864634	-0.016390897
215	0x3c2af5df	0.010434597
216	0x3a2e7436	0.000665489
217	0x3d0b32cd	0.033983994
218	0x3c4d7fdd	0.012542692
219	0x3bb3d147	0.0054875943
220	0x3b8c3927	0.004279274
221	0x3be11255	0.0068686404
222	0x3c3b396e	0.0114272665
223	0xbbc61304	-0.0060447473
224	0xbb5604be	-0.0032656635
225	0x3c809cf3	0.01569984
226	0x3cbfc105	0.023407469
227	0x3c21e838	0.009882025
228	0xbcf7eded	-0.030264819
229	0xbc42eb49	-0.011896917
230	0x3c014135	0.007889082
231	0x3cf47d74	0.029844977
232	0xb921aee9	-0.00015419316
233	0xbc748021	-0.014923126
234	0x3b84010f	0.0040284465
235	0xbc06ad7f	-0.008220076
236	0xbc535886	-0.012899524
237	0xbd02d3f0	-0.0319404
238	0x3c048c4f	0.008090093
239	0x3c1ca5cd	0.009561014
240	0xbcaff695	-0.021479884
241	0xbcaebf56	-0.02133147
242	0x3d058085	0.03259327
243	0x3c9b66d9	0.01896994
244	0xbcb26cb0	-0.021780342
245	0x3ad611de	0.0016332229
246	0xbcb68c02	-0.022283558
247	0x3b24652c	0.0025084717
248	0x3ab80f7d	0.0014042702
249	0x3c7c8335	0.015412142
250	0x39a3fb98	0.00031277235
251	0x3c9aa809	0.018878954
252	0x3cc45f5b	0.02397125
253	0x3c7effb4	0.015563894
254	0x3ca8f5f4	0.020625092
255	0xbbc8424d	-0.0061114193

enc.lins.0.bias f4 [64]
0	0x3c3fd00f	0.01170732
1	0xbc3255e0	-0.010884732
2	0x3c7dd8bc	0.015493568
3	0xbc9504e6	-0.018190812
4	0x3ca80e3d	0.020514602
5	0xbc399ce1	-0.011328907
6	0x3ca97925	0.020687649
7	0xbb0c3dcd	-0.002139914
8	0x3b5853b2	0.003300887
9	0x3cbe38ab	0.02322038
10	0xbbb6f727	-0.005583662
11	0x3c8e9251	0.017403753
12	0xbcae836b	-0.0213029
13	0xbc8fe8ec	-0.01756712
14	0x3c17ffa6	0.00927726
15	0x3c15f40b	0.009152423
16	0x3b9155a7	0.0044352594
17	0xbc81b70e	-0.015834358
18	0x3b8ecc50	0.004357852
19	0x3c74eae5	0.014948581
20	0x3c7377e2	0.014860125
21	0x3c93e6d5	0.018054405
22	0x3c71cebf	0.014758765
23	0xbc832932	-0.016010854
24	0x3c5eb892	0.01359381
25	0xbc138d01	-0.009005786
26	0xbbba7eef	-0.005691401
27	0x395a8f14	0.00020843401
28	0x3ca563f6	0.020189267
29	0x3ca2c83f	0.019870875
30	0x3c8b8273	0.017029976
31	0xbc6de6a7	-0.014520324
32	0x3bbd70f7	0.0057812887
33	0x3a83a189	0.0010042648
34	0x3c834f54	0.016029038
35	0x3c943988	0.01809384
36	0x3b67b541	0.0035355838
37	0xbc891b98	-0.01673679
38	0x3b9ad073	0.004724556
39	0x3ca82d7c	0.020529501
40	0xbc79a5e7	-0.015237308
41	0x3b336d78	0.002737848
42	0x3c2f97d3	0.01071735
43	0x3bb8d5f4	0.0056407396
44	0x3beafe37	0.007171418
45	0x3caa04ac	0.02075418
46	0xbb875a49	-0.004130636
47	0xbc070c7b	-0.008242722
48	0xbbc0cf51	-0.005884089
49	0xbc91bfb1	-0.0177916
50	0x3c9c63f1	0.019090625
51	0x3c917d66	0.01775999
52	0xbc85f354	-0.01635138
53	0xbcb7b005	-0.0224228
54	0x3a8cb091	0.0010733773
55	0xbc4875c4	-0.012235109
56	0xbc9c2cb1	-0.01906428
57	0x3c508974	0.012728084
58	0x3c87d8b3	0.016582822
59	0xbc459fb9	-0.012062007
60	0xbc5ecb9d	-0.01359835
61	0x3c887bb3	0.016660547
62	0xbc8533e8	-0.016260102
63	0x3ca0102d	0.019538963

enc.lins.1.weight f4 [32, 64]
0	0xbd91f735	-0.07127229
1	0xbde91260	-0.11380458
2	0xbb9ef620	-0.0048511177
3	0xbdedcb5f	-0.116110556
4	0xbe137f5c	-0.14404052
5	0x3d8a4456	0.06751315
6	0xbce4a3ea	-0.027910192
7	0x3dc238d2	0.09483494
8	0xbd91d8ed	-0.071214534
9	0xbbce6794	-0.0062989686
10	0xbd9392ab	-0.07205709
11	0x3dbd4d0b	0.092432104
12	0x3dd5f9ad	0.104480125
13	0x3dc99dff	0.098445885
14	0xbdd6fe40	-0.10497713
15	0xbd44005d	-0.04785191
16	0x3db476a4	0.088116914
17	0xbde9ddcf	-0.1141926
18	0xbd5f128a	-0.05446104
19	0x3da6938a	0.081336096
20	0x3dbfe18e	0.09369193
21	0xbd39f582	-0.04540015
22	0xbdce0a0a	-0.100605085
23	0xbd0cbb33	-0.034358215
24	0x3d7dd673	0.061972093
25	0xbdeb5b6f	-0.11492049
26	0xbcdbc88a	-0.026829023
27	0x3d801974	0.06254855
28	0xbd79bd5c	-0.060971603
29	0xbd6f997b	-0.05849598
30	0x3dcc9654	0.0998961
31	0x3d9fb689	0.07798488
32	0x3d8ac90f	0.0677663
33	0x3c801a33	0.015637493
34	0x3da68879	0.08131499
35	0xbdc02b4a	-0.09383257
36	0x3db94548	0.090464175
37	0x3d86bbe4	0.06578806
38	0x3d95a80f	0.07307445
39	0x3d2e88d9	0.042610977
40	0x3c38e130	0.011284158
41	0x3c148e36	0.009067109
42	0xbd68801d	-0.056762803
43	0x3d89a6a4	0.06721237
44	0xbd4a5241	-0.04939485
45	0xbd1ff8c9	-0.03905562
46	0xbc744537	-0.01490908
47	0x3d3e410e	0.04644876
48	0xbd712d4b	-0.058881085
49	0x3dc9524e	0.098301515
50	0xbe0250cb	-0.12726133
51	0xbd012b53	-0.031535458
52	0x3d85da13	0.06535735
53	0xbda6028d	-0.08105955
54	0xbd80b337	-0.062841825
55	0x3dc0cf3b	0.09414526
56	0x3d81de10	0.06341183
57	0xbdfa0ab5	-0.122090735
58	0x3b110dde	0.002213351
59	0x3c5ae758	0.013360821
60	0xbc8d996f	-0.017285077
61	0x3c6433cd	0.013928366
62	0xbd7a3214	-0.061082914
63	0xbdebcd4f	-0.11513769
64	0x3cbfb251	0.023400458
65	0xbce09905	-0.027416715
66	0xbccd235e	-0.025041278
67	0x3d262f13	0.040572237
68	0xbdb119dd	-0.08647511
69	0xbd6f3f91	-0.05841023
70	0x3b3a19b5	0.002839667
71	0xbc763aaf	-0.01502864
72	0x3d46f456	0.04857286
73	0xbdc3fe04	-0.09569934
74	0xbd9db1f0	-0.076999545
75	0x3defc7d1	0.11708034
76	0xbd7f5e87	-0.062346008
77	0xbde200e5	-0.11035327
78	0x3de504d5	0.11182562
79	0xbd7c8b6e	-0.061656408
80	0x3c8dc6bd	0.01730668
81	0x3de73b85	0.11290649
82	0x3d92be03	0.07165148
83	0xbd827c8d	-0.063714124
84	0x3ddd1c26	0.107963845
85	0xbdcd493f	-0.10023736
86	0x3c0e850f	0.008698716
87	0xbde8318d	-0.11337576
88	0x3b900556	0.0043951673
89	0x3d391071	0.045181695
90	0x3de51aac	0.11186728
91	0x3dc13e97	0.09435766
92	0xbdd367e4	-0.1032255
93	0x3dd1fc92	0.10253252
94	0x3db40aa3	0.08791091
95	0x3d9f10f2	0.07766904
96	0xbdba426c	-0.090947
97	0x3ab076f8	0.001346319
98	0x3cc3b44f	0.023889689
99	0x3df6063c	0.12012908
100	0x3d1452f9	0.03621194
101	0x3ba797f5	0.0051145502
102	0x3ca224d8	0.01979296
103	0x3db44c6b	0.08803638
104	0xbd87fde8	-0.06640226
105	0xbdc03914	-0.09385887
106	0xbdf66e1c	-0.120327204
107	0xbd928e68	-0.07156068
108	0xbd7db815	-0.061943132
109	0x3e11ebdb	0.14250128
110	0xbd474316	-0.048647963
111	0xbd0c8769	-0.034308825
112	0xbc66f408	-0.0140962675
113	0xbcbe4582	-0.023226503
114	0x3ccb1a23	0.024792736
115	0x3c0b8305	0.008515124
116	0x3dedffe3	0.11621072
117	0xbdda3c97	-0.10656088
118	0x3d9463a1	0.07245565
119	0x3dac1d30	0.084040046
120	0x3d93f541	0.07224513
121	0xbc1c8768	-0.009553768
122	0x3dfae16e	0.122500286
123	0x3e065061	0.131166
124	0xbc874d3b	-0.016516319
125	0xbbcae4f9	-0.0061918464
126	0xbb6fbcb3	-0.003658098
127	0x3c67471a	0.014116073
128	0xbdf117bd	-0.11772106
129	0xbd018734	-0.03162308
130	0x3dc5c15e	0.096560225
131	0xbe04d718	-0.12972677
132	0xbd07e5d5	-0.03317817
133	0xbdbc8112	-0.09204306
134	0x3d3e47ca	0.046455182
135	0x3ddf3fb3	0.109008215
136	0xbdc71475	-0.09720699
137	0x3dd466ee	0.10371195
138	0x3dc6d6ae	0.09708916
139	0xbc5b1172	-0.0133708585
140	0x3d3307a4	0.04370846
141	0x3cd9a364	0.026567169
142	0xbbbcf57d	-0.005766569
143	0xbe01e122	-0.12683538
144	0xbcae217a	-0.021256197
145	0x3d9d4914	0.07679954
146	0x3ce6961e	0.028147753
147	0x3d1cee7c	0.038313374
148	0xbd8fe075	-0.07025234
149	0xbba8b3e8	-0.0051483996
150	0x3d417d42	0.047238596
151	0x3cd0d9a8	0.025494412
152	0xbdb82efe	-0.08993338
153	0xbdd0e577	-0.10200017
154	0x3dcad221	0.0990336
155	0xbcda9bec	-0.026685677
156	0x3aca0aab	0.0015414556
157	0x3da6e26f	0.081486575
158	0xbc72eda3	-0.014827165
159	0xbdfa800b	-0.122314535
160	0xb92332ac	-0.00015563768
161	0x3de58958	0.11207837
162	0xbda8bb4a	-0.082388476
163	0xbc538a42	-0.012911381
164	0xbe05b90d	-0.13058873
165	0xbd932111	-0.07184041
166	0x3b83cd76	0.0040222956
167	0xbc2efaef	-0.010679944
168	0xbdffdcaf	-0.12493264
169	0xbd97e20c	-0.07416162
170	0x3d31de21	0.04342473
171	0xbc18b06a	-0.009319404
172	0xbdee44ef	-0.11634242
173	0xbd30896b	-0.043099802
174	0x3da91931	0.08256758
175	0x3d9ae757	0.07563656
176	0x3d5cfffd	0.053955067
177	0x3d898a5c	0.06715843
178	0x3db77996	0.089587376
179	0x3d8e072b	0.06934961
180	0x3d0794fc	0.033101067
181	0x3de52964	0.11189535
182	0x3d13df9e	0.03610193
183	0x3d4e60d3	0.050385308
184	0xbdf692ca	-0.120397165
185	0x3d6fba06	0.058527015
186	0x3d9323e6	0.071845815
187	0x3d81ce59	0.06338186
188	0xbd8997bb	-0.067183934
189	0xbda72e1a	-0.0816309
190	0x3dd6376b	0.10459789
191	0xbc18b70a	-0.009320984
192	0x3db012b7	0.085973196
193	0xbd550c6a	-0.052013792
194	0x3cc655ee	0.024210896
195	0xba917990	-0.001109885
196	0x3db92d51	0.090418465
197	0x3c07c078	0.008285634
198	0xbbbfa95c	-0.0058490466
199	0x3c676d3b	0.014125164
200	0xbde17096	-0.11007802
201	0xbd6c62bd	-0.05771135
202	0xbdec7359	-0.11545438
203	0xbdc89640	-0.09794283
204	0x3cc777d5	0.024349133
205	0xbd9c9ba9	-0.07646877
206	0x3ca60d4d	0.020270014
207	0xbdb87c53	-0.09008088
208	0xbd19d5a3	-0.037557255
209	0x3db350e9	0.08755667
210	0xbd97de2e	-0.07415424
211	0x3c513ceb	0.012770872
212	0xbd28938a	-0.04115633
213	0xbdb7347e	-0.08945559
214	0x3dbd02e5	0.09229068
215	0xbc3fa572	-0.01169716
216	0x3c76294d	0.015024495
217	0x3d80d183	0.06289961
218	0x3ddc0f9f	0.10745167
219	0xbdd9a413	-0.10626998
220	0x3dcd28c7	0.10017543
221	0xbd84544a	-0.06461389
222	0x3dbfdc2d	0.09368167
223	0x3c119fb3	0.008888173
224	0xbd4c1cca	-0.049832143
225	0xbd910190	-0.07080376
226	0x3d9ba041	0.075989254
227	0xbdc224cb	-0.09479674
228	0x3db6de91	0.0892917
229	0xbc455f45	-0.01204664
230	0x3d8fed2d	0.070276596
231	0xbd657952	-0.056023903
232	0xbcae9313	-0.021310365
233	0xbdc450bd	-0.09585712
234	0xbbbd152b	-0.0057703457
235	0x3d6bab46	0.057536386
236	0x3cea5b68	0.028608039
237	0xbd0a4ff2	-0.033767648
238	0x3d688d68	0.05677548
239	0xbba987a9	-0.0051736427
240	0xbda816a6	-0.08207445
241	0xbd88fee1	-0.06689239
242	0xbcdc87ce	-0.026920225
243	0xbcf28c8b	-0.029608032
244	0x3da863f6	0.08222191
245	0x3d00b426	0.031421803
246	0x3be9e3b6	0.007137741
247	0xbd0bbbf4	-0.034114793
248	0x3de83b80	0.11339474
249	0xbc0b1e3b	-0.008491094
250	0x3d55685f	0.05210149
251	0xbd29479d	-0.04132806
252	0x3d04d690	0.032431185
253	0x3da90563	0.082529806
254	0xbd854520	-0.06507325
255	0x3d07585f	0.03304326

enc.lins.1.bias f4 [32]
0	0x3dbc9dea	0.09209807
1	0xbe1b4af1	-0.15165307
2	0xbd037669	-0.032095347
3	0x3d454c88	0.04816869
4	0xbce2825d	-0.027650053
5	0xbce2c757	-0.027682943
6	0x3de59996	0.11210935
7	0xbde44fcf	-0.11148035
8	0x3e2324d4	0.15932018
9	0x3d91f48f	0.07126724
10	0x3d1aec0a	0.03782276
11	0x3d03a0f8	0.032135934
12	0xbc9edfb3	-0.019393777
13	0x3df1543d	0.11783645
14	0xbe47291e	-0.19449279
15	0x3dd21bb5	0.10259191
16	0xbca6d42f	-0.020364849
17	0x3dd81dad	0.10552535
18	0x3e05df79	0.1307353
19	0x3df862fb	0.12128254
20	0x3d9eb85a	0.07750006
21	0x3d07469d	0.033026326
22	0xbdc381cf	-0.095462434
23	0xbd831e8b	-0.0640231
24	0xbc9c6be3	-0.019094413
25	0x3c93e926	0.01805551
26	0x3d5a7868	0.053337485
27	0xbde3e663	-0.11127927
28	0x3d6cd871	0.057823602
29	0x3d7ed75a	0.062217094
30	0x3db34271	0.08752907
31	0xbe81d131	-0.25354913

enc.norms.0.module.weight f4 [64]
0	0x3f7d22ea	0.988814
1	0x3f809d21	1.0047952
2	0x3f7f821b	0.998079
3	0x3f7fbfd5	0.9990209
4	0x3f7f5e93	0.99753684
5	0x3f803614	1.0016503
6	0x3f7f8a24	0.9982016
7	0x3f7fd117	0.9992842
8	0x3f7fe907	0.99964947
9	0x3f7eecb0	0.99579906
10	0x3f816812	1.0109885
11	0x3f80a802	1.0051272
12	0x3f7d07f6	0.9884027
13	0x3f7ca678	0.9869151
14	0x3f81c2b0	1.0137539
15	0x3f7f26fa	0.9966885
16	0x3f7fc531	0.99910265
17	0x3f811015	1.0083033
18	0x3f80a3c3	1.0049976
19	0x3f7fcf01	0.9992524
20	0x3f7fe3c2	0.99956906
21	0x3f804b57	1.0022992
22	0x3f7e7a55	0.99405414
23	0x3f7fbd1b	0.9989793
24	0x3f7e8422	0.9942037
25	0x3f8032f1	1.0015546
26	0x3f7f61be	0.9975852
27	0x3f7e7f80	0.994133
28	0x3f7eb340	0.99492264
29	0x3f816174	1.0107865
30	0x3f8106e5	1.0080229
31	0x3f8059c7	1.0027398
32	0x3f7e05a9	0.99227387
33	0x3f80202a	1.0009816
34	0x3f7e36ac	0.9930217
35	0x3f81528a	1.0103314
36	0x3f800c4f	1.0003756
37	0x3f7ef462	0.9959165
38	0x3f8014f9	1.00064
39	0x3f7f2ee4	0.99680924
40	0x3f80832e	1.0040033
41	0x3f7ff1a8	0.99978113
42	0x3f7f6ce4	0.9977553
43	0x3f7e8dc6	0.9943508
44	0x3f7df723	0.99205226
45	0x3f7e499a	0.9933106
46	0x3f7e31cf	0.9929475
47	0x3f7f9e9d	0.998514
48	0x3f80b12e	1.0054071
49	0x3f81bb42	1.0135272
50	0x3f7df477	0.9920115
51	0x3f7feee1	0.99973875
52	0x3f804a59	1.0022689
53	0x3f7f7bd3	0.99798316
54	0x3f7ee960	0.9957485
55	0x3f7ed2e0	0.9954052
56	0x3f8074df	1.0035666
57	0x3f80af16	1.0053432
58	0x3f7e73cb	0.99395436
59	0x3f7e2f08	0.99290514
60	0x3f7d1d3f	0.9887275
61	0x3f803531	1.0016233
62	0x3f7e75e6	0.9939865
63	0x3f7ee36a	0.99565756

enc.norms.0.module.bias f4 [64]
0	0x3b9605db	0.0045783347
1	0xbc1a9714	-0.009435434
2	0x3c1e11f7	0.009647838
3	0xbc610cb9	-0.0137359435
4	0x3d0422e8	0.03225985
5	0x3c8c14fd	0.017099852
6	0xbc87ccdf	-0.016577182
7	0x3bf6be26	0.0075299917
8	0x3ca06017	0.01957707
9	0xbc99ce2e	-0.018775072
10	0xbaebbd1a	-0.0017985434
11	0xbc946951	-0.018116625
12	0xbc6be8d8	-0.014398776
13	0x396ebe5f	0.00022768367
14	0xbbb18440	-0.0054173768
15	0x3a98935d	0.0011640597
16	0x3bef332e	0.0072998023
17	0xbc888e23	-0.016669339
18	0xbc4888bb	-0.01223963
19	0x3cd42ba8	0.025899723
20	0x3cb108a6	0.02161057
21	0x3c50e7a4	0.01275054
22	0x3baf67a1	0.0053529297
23	0x3c9eabf2	0.0193691
24	0x3ce2edde	0.027701315
25	0x3c694a86	0.014238959
26	0x3bfbf644	0.0076892693
27	0xba97e1da	-0.0011587695
28	0x3b69e775	0.0035690938
29	0x3c36325d	0.011120406
30	0x3a975e96	0.0011548575
31	0x3ccf30df	0.025291858
32	0xbbafcf5d	-0.005365296
33	0x3ceb23f3	0.028703665
34	0x3bc52ee0	0.006017551
35	0xbc047c60	-0.008086294
36	0x3b6cf651	0.0036157558
37	0xbb494a90	-0.0030714609
38	0x3d4bfaed	0.04979985
39	0xbc228e1a	-0.009921575
40	0x3b73e125	0.0037213054
41	0xbc83c97e	-0.01608729
42	0x3be71ba9	0.007052858
43	0xbba645e9	-0.005074252
44	0xbc37a9e0	-0.011209935
45	0xbc694015	-0.01423647
46	0x3b281771	0.0025648738
47	0xbc1b9328	-0.009495534
48	0x3c7d340e	0.015454305
49	0x3d238043	0.03991724
50	0x3bec1c32	0.0072055096
51	0xbc248061	-0.010040374
52	0x3bfc0cb7	0.0076919454
53	0x3ca344f7	0.019930346
54	0x3adf0b39	0.0017016894
55	0xbc91b3d9	-0.017785953
56	0xbc52fb16	-0.012877246
57	0xbc2cc50d	-0.010545027
58	0x3c2abe94	0.010421414
59	0x3baa53cf	0.005197979
60	0xbc46044d	-0.012085986
61	0x3d279f30	0.040923297
62	0xbbc7dbff	-0.0060992236
63	0x3ba126f2	0.0049179727

enc.norms.0.module.running_mean f4 [64]
0	0xbeb601b3	-0.3554817
1	0xbf66c498	-0.9014373
2	0x3f1c0a1f	0.60952944
3	0xbf2309e7	-0.63686985
4	0x3f4ac71e	0.7921008
5	0x3f44963b	0.76791734
6	0xbf03d3c1	-0.51494986
7	0x3f3b4e6b	0.7316653
8	0xbd986415	-0.07440964
9	0xbf3a67e6	-0.72814786
10	0xbeb36bdd	-0.3504323
11	0xbf71942f	-0.94366735
12	0xbeb8fbff	-0.36129758
13	0x3f77cc8d	0.96796495
14	0xbf9017b8	-1.1257238
15	0xbeaa1079	-0.33215693
16	0x3f29c47a	0.66315424
17	0xbf3b577e	-0.7318038
18	0xbf7973c4	-0.9744227
19	0x3f9acea1	1.2094308
20	0x3f54f972	0.83193123
21	0x3f1c8fe0	0.61157036
22	0xbee7a862	-0.45245653
23	0x3f45ae96	0.7721952
24	0x3f94e7ae	1.1633203
25	0x3f7400ca	0.95313704
26	0xbc3a9f62	-0.011390539
27	0xbf53848c	-0.82624125
28	0xbed6bd68	-0.4194138
29	0x3ca38606	0.019961368
30	0xbf092e0e	-0.535859
31	0x3f996032	1.1982481
32	0xbf3d6b4c	-0.7399185
33	0xbb4e216d	-0.0031453029
34	0x3f09b6e4	0.53794694
35	0xbf560f13	-0.8361675
36	0xbe13efca	-0.14446941
37	0xbe251b45	-0.16123684
38	0x3fd57efb	1.6679376
39	0xbee94ef4	-0.4556805
40	0x3f18f1e9	0.59744126
41	0x3e92492a	0.28571445
42	0x3e87d01c	0.26525962
43	0x3f59c214	0.85061765
44	0x3ea228d0	0.31671762
45	0xbf2808d0	-0.65638447
46	0xbf4a973a	-0.79137003
47	0xbf49f12a	-0.7888361
48	0x3ef23421	0.47305396
49	0x3f327763	0.6971342
50	0xbdcd2796	-0.10017316
51	0xbeab65e0	-0.33476162
52	0xbe209ed8	-0.15685594
53	0x3f9a5f85	1.20604
54	0xbf1ce97b	-0.6129376
55	0xbf627faf	-0.8847608
56	0xbf7b2028	-0.9809594
57	0xbf336843	-0.70080966
58	0xbec82d0c	-0.39096868
59	0x3ea1d395	0.31606737
60	0xbf864bef	-1.0491923
61	0x3f1c8fdd	0.6115702
62	0xbf1ea35c	-0.61968017
63	0xbe83be2a	-0.2573102

enc.norms.0.module.running_var f4 [64]
0	0x4306a897	134.65855
1	0x436f808a	239.5021
2	0x42bff498	95.97772
3	0x435b5462	219.32962
4	0x432da7d4	173.65558
5	0x4381846c	259.03455
6	0x432ea72a	174.65298
7	0x43a061f8	320.76538
8	0x42fe6649	127.199776
9	0x43244f5b	164.30998
10	0x436d81bd	237.50679
11	0x434d803d	205.50093
12	0x433543d0	181.2649
13	0x4392362c	292.42322
14	0x433ead96	190.67807
15	0x430fa3d8	143.64001
16	0x427acc42	62.69947
17	0x4320c864	160.78278
18	0x43585e16	216.36752
19	0x43629b16	226.6058
20	0x43946748	296.8069
21	0x4390d4a9	289.6614
22	0x4368843c	232.51654
23	0x430ab3f1	138.7029
24	0x4389c3a7	275.52853
25	0x42cac165	101.37772
26	0x42f2719b	121.221886
27	0x42e16d12	112.71303
28	0x4319c85c	153.78265
29	0x4384591a	264.6961
30	0x432368c8	163.4093
31	0x43233393	163.20146
32	0x43036169	131.38051
33	0x42e2fb2e	113.490585
34	0x431848b2	152.28397
35	0x42b1e8ac	88.95444
36	0x42f2e4a1	121.44654
37	0x4250706b	52.109783
38	0x43e12570	450.29248
39	0x431103a6	145.01425
40	0x43174906	151.28525
41	0x42df88a0	111.766846
42	0x42fa1f81	125.06153
43	0x43129aeb	146.60515
44	0x42fc3e34	126.12149
45	0x43350a0a	181.03922
46	0x42f67bdd	123.24192
47	0x43210b44	161.044
48	0x42f58472	122.75868
49	0x43558270	213.50952
50	0x42d0d84e	104.42247
51	0x437310e5	243.066
52	0x43709d69	240.61488
53	0x433dbfab	189.7487
54	0x42f0d6cd	120.41953
55	0x435440b1	212.2527
56	0x434a7427	202.45372
57	0x4359f6ad	217.96358
58	0x42b30e36	89.527756
59	0x427bf94b	62.99345
60	0x436609ec	230.03876
61	0x43a7ce2e	335.61078
62	0x430eee18	142.93005
63	0x42cfa5de	103.82396

momentum_buffer f4 [64, 1680]
0	0x3b9ef877	0.0048513967
1	0xba234cfc	-0.0006229428
2	0xbbb7caa7	-0.005608875
3	0x3b827eca	0.0039823996
4	0xbb4f8c0d	-0.003166917
5	0x3b4ba991	0.0031076411
6	0xbbab73a4	-0.0052322913
7	0xbb7c6d34	-0.0038517239
8	0x39007228	0.00012249558
9	0x3b9054a7	0.0044046226
10	0xbb8a65fc	-0.0042235833
11	0x3a5ef49a	0.00085050764
12	0x3c20f436	0.009823849
13	0x3ba66166	0.005077529
14	0x3b0e1246	0.0021678372
15	0x3be32364	0.006931709
16	0xba8c8ea3	-0.0010723661
17	0xb77f3300	-1.5211059e-05
18	0x3b508c22	0.0031821807
19	0x3b55babc	0.0032612523
20	0x3beca8fc	0.007222293
21	0xbae24c74	-0.0017265216
22	0xb9cb1054	-0.00038731343
23	0x3a928a4a	0.0011180129
24	0xbb716ce4	-0.0036838586
25	0x3b0cad6c	0.0021465672
26	0x3b6f8834	0.003654969
27	0x3b65e166	0.0035076975
28	0xbafdedd4	-0.0019373246
29	0xbaa58ab6	-0.001262984
30	0x3af67f11	0.0018806179
31	0x37a54a70	1.9704195e-05
32	0x3b93d87e	0.004511892
33	0x3b01a461	0.0019781815
34	0x3b095b29	0.0020958877
35	0xba3a145e	-0.0007098372
36	0x3a29bdf9	0.00064751465
37	0x3b1a37c1	0.0023531767
38	0xbb6329dd	-0.0034662404
39	0xbb2a2f29	-0.002596805
40	0xba2cabe1	-0.0006586891
41	0x3af01136	0.0018315676
42	0x3aa04793	0.0012228362
43	0xbad209d7	-0.0016024661
44	0xbade40b8	-0.0016956544
45	0xb87dae88	-6.0482445e-05
46	0xb91f73f2	-0.00015206615
47	0xba019ff0	-0.0004944792
48	0xba2a22ef	-0.0006490191
49	0xbac04406	-0.001466871
50	0x3a16287a	0.00057280774
51	0xb9709648	-0.00022944168
52	0x3a876214	0.0010328912
53	0xb8db8f48	-0.00010469422
54	0xba847ed4	-0.0010108599
55	0xb9c27855	-0.00037092218
56	0x3a186baf	0.0005814386
57	0xba3b2107	-0.00071384053
58	0x399729a8	0.00028832
59	0xb9e32021	-0.00043320752
60	0xb9478172	-0.00019026341
61	0xba497c39	-0.0007686052
62	0x39598402	0.0002074391
63	0xba40cd09	-0.00073547714
64	0x3a83ac0d	0.0010045782
65	0xb99fd479	-0.00030485148
66	0x39ebc17c	0.0004496685
67	0xba9251d4	-0.0011163303
68	0xba0eb116	-0.0005443258
69	0xba10f2a9	-0.0005529323
70	0xba77f59a	-0.00094589
71	0x3a6a197d	0.00089301897
72	0xb9257d21	-0.0001578224
73	0x3a772580	0.000942789
74	0x3a804d7d	0.0009788718
75	0x3a88e457	0.0010444027
76	0x392e02d8	0.00016594992
77	0xb96e58b8	-0.00022730499
78	0x3a7a2a42	0.000954304
79	0xb9da247c	-0.00041607383
80	0xb9eb53b6	-0.00044885062
81	0x39c02e06	0.00036655384
82	0xbaa1183f	-0.0012290551
83	0x3acc6a0e	0.0015595572
84	0x3a03b4fc	0.0005024222
85	0x3a93ed7e	0.0011285988
86	0xba597100	-0.00082947314
87	0xb9b51362	-0.00034537452
88	0xb89ab208	-7.376453e-05
89	0xbaac999c	-0.0013168338
90	0x3a25a148	0.0006318283
91	0x38879040	6.46417e-05
92	0x3abaa988	0.0014241198
93	0xba79fe42	-0.00095364836
94	0x3ad1a96a	0.0015995924
95	0x3b023340	0.0019866973
96	0xba71054a	-0.00091942085
97	0x3ad28a84	0.0016063009
98	0xba32ca91	-0.0006820346
99	0xbada95c0	-0.0016676709
100	0xb9882b29	-0.00025972098
101	0x3ac8fb4d	0.0015333683
102	0x38b41d42	8.5885185e-05
103	0xb935d6ca	-0.0001734152
104	0x3ad317bf	0.0016105099
105	0x39c0c501	0.00036767873
106	0xb9c741b4	-0.0003800519
107	0x3a60e9ff	0.000857979
108	0xba77bc92	-0.00094504014
109	0xb9a074aa	-0.000306045
110	0xba2a7253	-0.0006502021
111	0x3a20e6df	0.0006137918
112	0xba5c1604	-0.00083956146
113	0x3a5367e2	0.0008064491
114	0xbb04a383	-0.0020239062
115	0x3924c6c0	0.00015714299
116	0xb82114f0	-3.840489e-05
117	0xba93651f	-0.0011245346
118	0xbae9f064	-0.0017848131
119	0x38681f50	5.5342272e-05
120	0xbab1bb7a	-0.0013559901
121	0x3b59fb1f	0.0033261252
122	0x39fe4923	0.00048501146
123	0xbaa566b8	-0.0012619114
124	0xba2d3809	-0.0006607776
125	0xba8f7332	-0.0010944365
126	0xb8c1c0fc	-9.238903e-05
127	0x3b0fe143	0.0021954335
128	0x3a004fd8	0.000489471
129	0xb89a3bb8	-7.354416e-05
130	0x39579729	0.0002056031
131	0x3a540485	0.00080878317
132	0xbae1096e	-0.0017168948
133	0x3a121fc8	0.0005574194
134	0x3a2c2b97	0.00065677747
135	0xbab51c32	-0.0013817607
136	0xb92abd8e	-0.00016283078
137	0x3708cdd8	8.154158e-06
138	0xbb21af19	-0.0024671017
139	0x3b17cfba	0.0023164586
140	0xbb0bc7ae	-0.0021328735
141	0xba9e8378	-0.0012093624
142	0xba5839cb	-0.0008248358
143	0x3a92fb24	0.0011213762
144	0x37e722a8	2.7553484e-05
145	0xba7c4263	-0.00096229295
146	0xba0996db	-0.00052486145
147	0xbb894b34	-0.004189873
148	0x3b150615	0.002273922
149	0x3b396af2	0.0028292504
150	0x3acd9a7e	0.0015686301
151	0x3a884eaf	0.0010399426
152	0xb8429a70	-4.6397035e-05
153	0x39ffd98a	0.0004879947
154	0x39891941	0.00026149492
155	0x3a3c79a8	0.0007189759
156	0xbb3fc154	-0.002925952
157	0x3abd91de	0.0014463027
158	0x3ab83c04	0.0014055972
159	0x3ae4af62	0.0017447288
160	0xbac635a6	-0.001512219
161	0x3ace2494	0.0015727454
162	0x3a23efa7	0.00062536675
163	0x3af16cd0	0.001841927
164	0xb9d0fa99	-0.0003985956
165	0xba709f48	-0.0009179008
166	0xb9bf2588	-0.00036458322
167	0xb8ecd39d	-0.00011292773
168	0x39c995cf	0.00038449324
169	0x3a20ce7f	0.0006134286
170	0xb9f61d41	-0.00046942572
171	0xb9d94281	-0.00041439015
172	0xba5cbb92	-0.0008420284
173	0xba2a9e25	-0.0006508551
174	0x3a043e4f	0.0005044685
175	0xbab9f3b8	-0.0014187014
176	0xba65d6c5	-0.000876766
177	0x39f714c6	0.0004712699
178	0x3b3a240b	0.002840283
179	0xb9be0faa	-0.00036251295
180	0xbaae6413	-0.0013304971
181	0x3adc52b7	0.0016809319
182	0xbb2141ab	-0.0024605792
183	0xb98a7227	-0.0002640646
184	0x3a6dd761	0.00090729265
185	0xba467310	-0.0007570246
186	0x3ae6e3a0	0.0017615445
187	0x3af91a14	0.0019004964
188	0xba94fa0a	-0.0011366021
189	0x3a95eee9	0.0011438999
190	0x3ad322f1	0.0016108436
191	0xba964a6c	-0.0011466271
192	0x3a3592a1	0.00069264515
193	0xb933627a	-0.00017107456
194	0xbaaa5d23	-0.0012997728
195	0xb9a183eb	-0.000308066
196	0x3b32f769	0.0027308112
197	0xb9dac796	-0.00041728903
198	0xba970cc7	-0.0011524194
199	0xb98225aa	-0.00024823594
200	0x38a9e45c	8.101083e-05
201	0xbb29208f	-0.002580676
202	0x3aa5d968	0.0012653293
203	0xba16f332	-0.0005758285
204	0x3a6f3139	0.0009124461
205	0x3af1611e	0.0018415784
206	0x3acc150f	0.0015570241
207	0xba4ec49d	-0.0007887574
208	0x3a30ea62	0.0006748793
209	0x3af5f7de	0.0018765887
210	0x3aadbac0	0.0013254508
211	0xba30c5db	-0.000674335
212	0xbb975a92	-0.004618951
213	0xbb19103f	-0.002335563
214	0x3a7d7f44	0.0009670148
215	0x3a770854	0.0009423543
216	0x3b2ca610	0.0026344098
217	0xbae78240	-0.0017662719
218	0xbb60c85a	-0.0034299106
219	0x3a9b205a	0.0011835203
220	0xbb6080b7	-0.0034256408
221	0xbb0e7f1e	-0.0021743248
222	0x3b34a1e2	0.002756231
223	0x3afb57cd	0.0019175947
224	0xbb1b1424	-0.0023663128
225	0x3af0a4fd	0.0018359717
226	0xbaca0101	-0.0015411676
227	0x3af6a44c	0.0018817275
228	0x3b7eaa7c	0.003885894
229	0x3988e8fc	0.00026113528
230	0xb793f900	-1.7639715e-05
231	0xba77bb16	-0.000945018
232	0x3b3089ea	0.0026937672
233	0xb9fe73f4	-0.00048533047
234	0xbaa94c9b	-0.0012916507
235	0xba8e9b25	-0.0010879977
236	0xbba326ff	-0.004979014
237	0x3ac4bc04	0.0015009646
238	0x3b2f9bb2	0.0026795682
239	0x3af51ec2	0.0018701183
240	0x3b1d9d6b	0.0024050127
241	0xba5f4b04	-0.0008517953
242	0x3a487efe	0.0007648318
243	0xbadbdc3e	-0.0016774011
244	0x3abbc81c	0.0014326605
245	0x3a891b98	0.0010460494
246	0x3a2086f2	0.0006123624
247	0xba94792c	-0.0011327616
248	0xb9957216	-0.00028504495
249	0xb849f310	-4.8148504e-05
250	0x398fa81d	0.0002740034
251	0xbaa71c2b	-0.0012749484
252	0xba6a9210	-0.00089481566
253	0xba479687	-0.0007613678
254	0x3a347f1c	0.0006885396
255	0x3b043b7c	0.0020177057

momentum_buffer f4 [64]
0	0xacfe7ce4	-7.23298e-12
1	0x2c7c4d30	3.5854202e-12
2	0x2e94197f	6.73479e-11
3	0xadb09393	-2.007442e-11
4	0xaf68ce9f	-2.1173684e-10
5	0xaf1913ba	-1.3922277e-10
6	0xadcee103	-2.3519414e-11
7	0x2e9db6ed	7.1720276e-11
8	0xad8e84f2	-1.620257e-11
9	0xabd23bf0	-1.4938033e-12
10	0xae156371	-3.3967e-11
11	0x2d0ff79e	8.183591e-12
12	0xadf98e6c	-2.837127e-11
13	0xae326a94	-4.0567175e-11
14	0x2f31f110	1.6183699e-10
15	0xae1bf434	-3.5459816e-11
16	0x2f37aed4	1.6705864e-10
17	0x2d3584e5	1.0318167e-11
18	0xac715c3b	-3.4299358e-12
19	0x2f10f798	1.3184687e-10
20	0xad957966	-1.699325e-11
21	0xae04cbb3	-3.0194246e-11
22	0xaea683e0	-7.572232e-11
23	0xaebefdc7	-8.6852796e-11
24	0xaf32d792	-1.6265592e-10
25	0x2ee64f72	1.04733014e-10
26	0x2ed2dab0	9.588541e-11
27	0x2e245c48	3.7371245e-11
28	0xaeba5e48	-8.4750484e-11
29	0xae21033e	-3.661004e-11
30	0x2c9ac39c	4.3986603e-12
31	0xae8ca22c	-6.3952704e-11
32	0xad5f7ed7	-1.27042465e-11
33	0xaf3f7e87	-1.74163e-10
34	0x2f45ef46	1.8002053e-10
35	0x2f68cf22	2.1173865e-10
36	0x2f2038d1	1.45721e-10
37	0xaf4cde37	-1.8632638e-10
38	0xae834134	-5.968773e-11
39	0xad0a8cba	-7.875639e-12
40	0xaf130eab	-1.3374783e-10
41	0x2da8a27c	1.9171546e-11
42	0x2f23ab54	1.4885632e-10
43	0x2da4f384	1.8752784e-11
44	0xaf50d196	-1.899195e-10
45	0xadaf531a	-1.9932101e-11
46	0x2e60cc9c	5.1113433e-11
47	0x2ddc3ba7	2.5037595e-11
48	0xaecbeaf8	-9.27311e-11
49	0xaccf53e0	-5.892606e-12
50	0xadfaae92	-2.8499234e-11
51	0xada86016	-1.914206e-11
52	0xada2d83c	-1.8513295e-11
53	0x2e8537fa	6.058083e-11
54	0x2f0de7aa	1.2906179e-10
55	0xae17bd23	-3.4501412e-11
56	0xaea09568	-7.3024975e-11
57	0xae834461	-5.969337e-11
58	0x2e050909	3.0248724e-11
59	0x2f8cab5a	2.5587604e-10
60	0x2e16a28c	3.4250422e-11
61	0x2e90f855	6.5924745e-11
62	0x2c561fc2	3.0428858e-12
63	0xadffed0a	-2.909541e-11

momentum_buffer f4 [32, 64]
0	0xbbba3837	-0.005682971
1	0x39b1f5c0	0.0003394317
2	0x3aa894f8	0.0012861779
3	0x3981ab20	0.00024732295
4	0x3c26a862	0.0101719815
5	0xbb4ef79e	-0.0031580697
6	0x39c4e1c0	0.0003755223
7	0xbc8df85f	-0.017330347
8	0xbad2db54	-0.0016087093
9	0x3b922c2a	0.004460831
10	0xbbe62741	-0.0070237224
11	0x39fe0de8	0.00048457016
12	0xbaa58832	-0.001262909
13	0xbc2675b3	-0.010159898
14	0xbbdafd62	-0.0066830376
15	0x3b4c1628	0.0031141136
16	0xba312588	-0.0006757607
17	0x3b0daf31	0.0021619315
18	0xba319a04	-0.0006774964
19	0xbcf9692e	-0.030445661
20	0x3b589480	0.0033047497
21	0xbc6f1a2a	-0.01459364
22	0x3a93611d	0.0011244152
23	0x39d13268	0.00039901142
24	0x3a062a78	0.00051180227
25	0x3ada0990	0.001663493
26	0x3cbb84c1	0.02289045
27	0xbb08aa30	-0.0020853393
28	0x3bc783f0	0.006088726
29	0xbb482e72	-0.0030545262
30	0x3b058816	0.0020375303
31	0xbaff5ab0	-0.0019481983
32	0xbbef90c4	-0.0073109586
33	0xbc432dc4	-0.011912767
34	0x3bb5fb52	0.0055536414
35	0xbb59c2d5	-0.0033227701
36	0x3c8aa92b	0.016926369
37	0x3bd82dd2	0.006597259
38	0xbc2bd5a3	-0.010487947
39	0x3a38ecfc	0.00070543564
40	0xbb96c349	-0.0046009165
41	0x3c401b3a	0.011725241
42	0xbb77a422	-0.003778704
43	0xbc267d18	-0.010161661
44	0x3c1a00d8	0.009399615
45	0xba810e37	-0.0009846155
46	0xbb0ae802	-0.0021195416
47	0x3a6d09f0	0.00090423133
48	0x3b26467e	0.0025371606
49	0xbcc1db51	-0.023664149
50	0x3ce64824	0.028110571
51	0x3a959180	0.001141116
52	0xbca1f77d	-0.019771332
53	0xbc338a00	-0.010958195
54	0x3c6af13f	0.014339744
55	0xba53a61f	-0.0008073765
56	0xbb7eccd0	-0.0038879402
57	0x3a42e578	0.0007434706
58	0x3c76cf5c	0.015064087
59	0x3cc2fad0	0.023801237
60	0x3a53f3b8	0.0008085328
61	0xbc94ce9c	-0.018164925
62	0xbab53cf3	-0.0013827368
63	0x3bc68570	0.0060583875
64	0x3a8fb664	0.0010964391
65	0xbbcdce38	-0.0062806867
66	0xbbebc949	-0.007195626
67	0xbaa076eb	-0.0012242472
68	0xbc0dce1f	-0.0086551
69	0xbc22e669	-0.009942629
70	0xbaa8c961	-0.0012877398
71	0x3c0d57ab	0.008626859
72	0x3ae005b2	0.0017091541
73	0xbb949508	-0.0045343675
74	0xbbabcebe	-0.0052431514
75	0xbb05aa8e	-0.0020395848
76	0x3a2c2822	0.00065672596
77	0x3c05c858	0.008165441
78	0xbb87926a	-0.004137327
79	0xbbfffdc3	-0.007812233
80	0x3bca597e	0.006175219
81	0xbac19688	-0.0014769593
82	0xba0d5e4c	-0.00053927745
83	0x3cad3bf7	0.021146758
84	0xbae72c6c	-0.001763714
85	0x39e95c56	0.0004451002
86	0xba8e6b24	-0.0010865671
87	0xbc0d1e4f	-0.008613183
88	0xb9dd9608	-0.00042264187
89	0xb64fd900	-3.0971714e-06
90	0xbc382e63	-0.011241528
91	0xbbb07e94	-0.005386183
92	0xbbf5a21d	-0.007496132
93	0xbbccd2f2	-0.0062507326
94	0xbabacce7	-0.001425174
95	0x3c214c19	0.009844803
96	0xba81a5d8	-0.0009891344
97	0x3c906df2	0.017630551
98	0xbc7697b5	-0.015050818
99	0xb9cddb68	-0.00039264117
100	0xbcb57375	-0.02214978
101	0x3c020813	0.007936495
102	0x39c7f2e8	0.00038137217
103	0xb958a72a	-0.00020661639
104	0xbbb4eaaf	-0.0055211405
105	0xbcb532a8	-0.022118881
106	0xbbc1f653	-0.0059192567
107	0x3c36b58b	0.011151682
108	0xbb9cdf1e	-0.00478734
109	0xb9ae31c2	-0.0003322494
110	0xba9560ed	-0.0011396684
111	0xbb10c0a4	-0.002208748
112	0x3c1553cb	0.009114216
113	0x3c1410d8	0.009037219
114	0xbd11cacf	-0.035593804
115	0xba8e5a34	-0.0010860623
116	0x3bc527bf	0.006016701
117	0xba0c430a	-0.0005350566
118	0xbc4915af	-0.012273236
119	0xba9b21b6	-0.0011835608
120	0x3acbcf5a	0.0015549466
121	0xb99127bf	-0.00027686168
122	0xbc06d128	-0.008228578
123	0xbb8842f5	-0.0041583725
124	0xbade7e3c	-0.0016974877
125	0x3bb4dfd0	0.0055198446
126	0x3a47492e	0.0007602152
127	0xbbec2690	-0.0072067454
128	0x3b81d348	0.0039619543
129	0x3a61caf4	0.0008613311
130	0xbbad840e	-0.005295283
131	0xb992f430	-0.00028029224
132	0xbbf6301b	-0.007513059
133	0xbbd385c1	-0.0064551537
134	0x3a188242	0.000581775
135	0x3b982646	0.0046432344
136	0xbbae602a	-0.0053215222
137	0xbaa4cdf8	-0.001257359
138	0x3bb35e2c	0.0054738726
139	0x3a25dd2a	0.00063272065
140	0x3a1312c7	0.0005610403
141	0xba82f89e	-0.0009992307
142	0x3bedde6e	0.0072591817
143	0xbba07ae2	-0.0048974613
144	0xbbd8141f	-0.0065941955
145	0x3b044e88	0.002018841
146	0xba267d66	-0.0006351083
147	0x3ac7e2ae	0.0015250051
148	0xbc3f9a70	-0.011694536
149	0x3bc69700	0.006060481
150	0xba622dfa	-0.0008628067
151	0xbc77df74	-0.015128959
152	0xbc3d8ffc	-0.011569973
153	0xbcdea143	-0.027176505
154	0xbc1e6b6a	-0.009669164
155	0x3b029faa	0.0019931593
156	0xbb270085	-0.0025482487
157	0xbb77a770	-0.003778901
158	0xbb1802e6	-0.0023195087
159	0xbc9465c4	-0.018114932
160	0x3b927349	0.0044693095
161	0x3b620a28	0.0034490917
162	0xbc4c5a9c	-0.012472775
163	0x3b15618f	0.0022793745
164	0xbca8295a	-0.02052753
165	0xbcc044e5	-0.023470351
166	0xbaf2edf6	-0.0018534053
167	0xba4b27be	-0.00077497575
168	0xbc1016f3	-0.008794534
169	0xbcccfbf6	-0.025022488
170	0xbc2d8c4b	-0.0105925305
171	0xbc2aa810	-0.010416046
172	0xbc70f579	-0.014706963
173	0x3aba9e34	0.0014237822
174	0x3aa0a2de	0.001225557
175	0xbaa009b4	-0.0012209923
176	0xbc012f57	-0.007884822
177	0x3c3d29c4	0.011545602
178	0xbc2135f8	-0.009839527
179	0xbb01008f	-0.001968417
180	0x3beb9eba	0.0071905525
181	0x3b8be6b6	0.0042694462
182	0x3b05cc6a	0.002041603
183	0x3b4544f5	0.0030100916
184	0xbaad6978	-0.0013230285
185	0x394ce818	0.00019541418
186	0xba30e5c2	-0.0006748104
187	0xbc3cfc8f	-0.011534824
188	0xb98eeeb4	-0.00027262198
189	0x3a2ea902	0.00066627574
190	0x3b2e5968	0.0026603583
191	0xbaea009a	-0.0017852962
192	0x39b33484	0.00034180668
193	0xba51ac72	-0.00079984136
194	0xbc06d3f0	-0.008229241
195	0x3b2fc1c0	0.0026818365
196	0x39d50e00	0.00040636957
197	0x3a4a5508	0.0007718359
198	0x3ad7ce26	0.0016464635
199	0x3b9cbf88	0.0047835745
200	0x3b048d50	0.002022583
201	0x3aba7bfe	0.0014227626
202	0xbbefe26c	-0.0073206928
203	0x3af197fc	0.0018432136
204	0x3b1631da	0.0022917897
205	0x3bb21872	0.005435043
206	0x3ae9df24	0.001784299
207	0x3b1494c5	0.0022671681
208	0x3c29839a	0.010346318
209	0x39d1b8a4	0.00040001154
210	0x3b18a578	0.0023291986
211	0x3c1fa636	0.009744218
212	0x3b6fad0e	0.0036571654
213	0x3b5a6b16	0.0033327988
214	0x3b0112dc	0.001969508
215	0x3b5d3951	0.0033756087
216	0x3c012e1e	0.00788453
217	0x3bcd7713	0.0062702983
218	0x3928ee30	0.0001611046
219	0x3a90af68	0.0011038603
220	0x3b790c57	0.003800174
221	0x3ba7c552	0.005119958
222	0x3b699022	0.0035638888
223	0x3be0b6e3	0.0068577393
224	0x3a7c30c4	0.0009620304
225	0x3b01bbd7	0.00197958
226	0x3b4d7b12	0.0031353873
227	0xbaaea408	-0.0013324032
228	0xbac8b7ec	-0.0015313602
229	0x3be0dd0d	0.006862289
230	0x3a53fad7	0.0008086389
231	0x3b46d12f	0.0030337085
232	0x373bc980	1.1192984e-05
233	0x3ba5db2d	0.005061528
234	0x3b6f27d0	0.0036492236
235	0x3c086e7e	0.008327125
236	0x3bcd22cc	0.0062602516
237	0x3b433885	0.0029788327
238	0x3a9698f1	0.0011489672
239	0x3b157b9a	0.0022809268
240	0x3c0113a2	0.007878216
241	0xbb2cc9c1	-0.0026365372
242	0xbb93489a	-0.0044947388
243	0x3b23e90e	0.0025010738
244	0x3b09e6fb	0.0021042216
245	0x3bc83380	0.006109655
246	0x3ad1d042	0.00160075
247	0x3ac9fb25	0.001540993
248	0x3b6b9624	0.0035947645
249	0x3b276fec	0.0025548888
250	0x3b190477	0.0023348609
251	0xbb576283	-0.0032865114
252	0x3b221037	0.0024728903
253	0x39de89d8	0.0004244584
254	0x39cf981c	0.00039595447
255	0x3b8722f0	0.004124038

momentum_buffer f4 [32]
0	0xbc9767eb	-0.01848217
1	0x3c28d786	0.010305291
2	0xbc6d9b86	-0.014502412
3	0x3bea3b1d	0.00714816
4	0x3c370023	0.011169466
5	0x3bef33c5	0.0072998726
6	0xbc2ca5aa	-0.010537544
7	0xbc9fefa9	-0.019523459
8	0xbc38a1f2	-0.0112690795
9	0xbc112ae2	-0.008860322
10	0xbbb1a8aa	-0.0054217177
11	0x3b4e99a6	0.0031524687
12	0x3bdbcdf8	0.006707903
13	0xbc731aa1	-0.014837892
14	0xbc6e0984	-0.014528636
15	0x3c373f5b	0.011184539
16	0xbc9c96b3	-0.019114828
17	0x3c49eb1f	0.012324124
18	0xbbe23b63	-0.006904052
19	0x3b1b2856	0.0023675165
20	0xbc2df68d	-0.010617864
21	0xbbf9a42e	-0.0076184487
22	0xbc1addeb	-0.009452323
23	0x3d1cd8fb	0.038292866
24	0x3c9aafe7	0.018882705
25	0x3b67bb18	0.003535932
26	0x3b93953f	0.0045038755
27	0xbd2e95d0	-0.04262334
28	0xbc1d3508	-0.009595163
29	0x3bde4634	0.006783271
30	0xbab396b4	-0.0013701529
31	0x3c88acf8	0.01668404

momentum_buffer f4 [64]
0	0xb9d8325a	-0.00041236245
1	0x3a90ece8	0.0011056932
2	0xba7e7896	-0.00097073
3	0x3ab2fb32	0.0013655184
4	0xbb978b8c	-0.0046247896
5	0xb98ec258	-0.00027229148
6	0x3a2c1f08	0.00065659033
7	0xbc520c50	-0.012820318
8	0xba2d946c	-0.0006621543
9	0xbadbbc78	-0.0016764542
10	0x3c6c10da	0.014408315
11	0xb88e6ca8	-6.7913265e-05
12	0x3999e2e6	0.00029351487
13	0xbbb160a7	-0.005413133
14	0x3a2f54d8	0.0006688363
15	0x3a7fcf17	0.0009758337
16	0x3c22ab4c	0.009928536
17	0xb9c8fe10	-0.00038336264
18	0xba1e151e	-0.00060303684
19	0xbca09b5b	-0.01960533
20	0x3c0d2573	0.008614886
21	0x3b327ded	0.0027235702
22	0x3a98ef30	0.0011667963
23	0x3b455810	0.0030112304
24	0x39727a40	0.0002312446
25	0x3c3941b2	0.011307167
26	0x3b5bd25f	0.003354214
27	0x3a045c93	0.0005049195
28	0xba6ac4b0	-0.00089557003
29	0xbc66e49a	-0.014092589
30	0xbab57c52	-0.0013846254
31	0x3c2fcab4	0.010729481
32	0x3acf3f0a	0.0015811634
33	0x3ac4b1c6	0.0015006594
34	0x3ab38fe4	0.0013699499
35	0xb9e94514	-0.0004449269
36	0xbb902387	-0.0043987664
37	0x3c823dcd	0.01589861
38	0xbbbc37c9	-0.005743955
39	0x385f6a22	5.3266187e-05
40	0x3b5492dc	0.0032436168
41	0x3c0da84f	0.008646085
42	0x3b89cae7	0.004205096
43	0xbbe2b99d	-0.0069190995
44	0x3b286cce	0.0025699618
45	0xb978b544	-0.0002371865
46	0x3ab17928	0.0013540136
47	0xb93b8500	-0.00017883256
48	0x3c6f4f70	0.014606342
49	0xbad3755c	-0.0016132998
50	0xbcc3f32a	-0.02391966
51	0xba395172	-0.0007069326
52	0xbb30e2ce	-0.0026990655
53	0xba8a77e0	-0.001056429
54	0xbc2af1a8	-0.010433592
55	0x3a9bb1d9	0.0011878564
56	0x3a7c5b5c	0.0009626651
57	0xba53da84	-0.00080815726
58	0x3b0c3d31	0.0021398778
59	0x3c32f42e	0.010922475
60	0x39e4624d	0.0004356079
61	0xbc2435ff	-0.010022639
62	0x3abd98f4	0.0014465139
63	0xbb8b844e	-0.0042577153

momentum_buffer f4 [64]
0	0x397bca38	0.00024012558
1	0x3a44293c	0.0007482951
2	0x3be14c4c	0.0068755504
3	0xbb0415a0	-0.002015449
4	0x3ba7b290	0.005117722
5	0xb7e87400	-2.7710572e-05
6	0x3a2a3ad3	0.0006493751
7	0xbcc32848	-0.023822919
8	0x3bc267c6	0.005932781
9	0xbb8f11b7	-0.0043661254
10	0x3bd599af	0.0065185647
11	0x3bc5dd6b	0.006038358
12	0x38b83f60	8.785608e-05
13	0xbc325a49	-0.0108857835
14	0x3b73eaa0	0.0037218705
15	0x3bd4d83d	0.006495504
16	0x3c9558ff	0.018230913
17	0xbb9a6866	-0.0047121523
18	0x3b040824	0.0020146454
19	0xbcab7a64	-0.020932384
20	0x3cc3b4cd	0.023889923
21	0xbc5a0829	-0.01330761
22	0xbbbf035e	-0.005829259
23	0x3bb9669e	0.005657985
24	0xbc2eb72e	-0.010663791
25	0x3b4e98c3	0.0031524159
26	0x3c1757a6	0.009237206
27	0x3b7544e4	0.0037425095
28	0xbb38a58b	-0.0028174843
29	0xbc8115cc	-0.015757464
30	0xbb37632c	-0.0027982695
31	0x3c967a80	0.01836896
32	0x39e2c0e4	0.00043249794
33	0x3bacbfe8	0.0052719004
34	0x3bac0973	0.00525015
35	0x3bc1511a	0.0058995606
36	0x3b1295a0	0.0022367015
37	0x3cd21849	0.025646346
38	0xbcb637fb	-0.02224349
39	0xba9db3b2	-0.0012031703
40	0x3b9c1e66	0.004764366
41	0x3bd4792f	0.006484173
42	0x36613000	3.3555552e-06
43	0xbbcce2b3	-0.0062526106
44	0x3c95d440	0.018289685
45	0xba5819b2	-0.0008243575
46	0x3a1a04aa	0.0005875329
47	0x3b1f9469	0.0024349934
48	0x3c7998a8	0.01523415
49	0xbc12ab35	-0.008951952
50	0xbc5c0b0a	-0.013430366
51	0xbc056e71	-0.008144007
52	0xbc0a6072	-0.008445846
53	0xbbae507c	-0.005319653
54	0xbc39879b	-0.011323835
55	0x3b6e0b85	0.0036322784
56	0x3bf3feb1	0.007446133
57	0xba9cbd90	-0.001195835
58	0x3c0509bc	0.008119997
59	0x3b8b3189	0.0042478484
60	0xbb7c06db	-0.0038456235
61	0xbcbe5b9a	-0.023237038
62	0x3b34fa4b	0.0027615007
63	0xbb793376	-0.0038025058
